models/Multi_MLP/mapping.pth (torch, 8641 bytes, 12 tensors)

weight f4 [8, 16]
0.3822126 -0.18271601 -0.7689234 -0.0019210563 0.49816373 0.005372971 -0.125805 0.86778164
0.18470609 0.087906785 -0.034268167 -0.400565 -0.03809884 -0.06735857 -0.081895076 0.03139403
-0.075052336 0.3169407 -0.42648625 -0.09622747 0.5326952 0.00086305523 -0.1829285 -0.48322618
0.26942092 0.085093655 0.09714174 -0.046007354 0.23708326 -0.12048316 0.16029935 -0.21028464
-0.6566606 0.15156803 -0.29841167 0.46512204 -0.5076966 -0.49135044 0.03345467 -0.14728153
0.15025319 0.069042355 0.15420538 0.42689392 -0.28517395 0.18493181 0.1222873 -0.22544543
0.03444986 -0.49760908 -0.17001025 -0.26096964 -0.052059878 -0.11931135 -0.060369655 -0.20666459
0.24970967 0.2916629 -0.07512494 -0.50031835 0.36413074 -0.09350824 -0.48596412 0.25180334
0.16656296 0.0054486557 0.2686406 -0.5454223 0.371745 0.10368894 0.1149815 -0.19468115
0.15002881 -0.038686268 0.29435173 -0.49555328 -0.5116921 0.01703812 -0.14157121 -0.071755335
0.31719226 0.006354961 -0.17754214 0.2351338 0.250861 -0.07895798 -0.27584928 0.96432954
0.3259143 0.13165615 0.21723774 -0.28179893 0.017493293 -0.039892882 0.1682594 0.099550456
0.30226082 -0.1591661 0.3826187 -0.24299562 0.2391287 -0.113955624 0.23355545 -0.5429359
-0.26058394 -0.12358793 -0.2959544 0.34751153 -0.29347315 0.090042695 -0.43308577 -0.05629976
-0.41746557 0.050486084 0.15511747 0.14082228 0.1370044 -0.3892075 -0.1929721 0.20734847
0.40736884 0.30591208 -0.54005873 0.15850529 -0.5875406 -0.011808971 0.24376418 -0.19524844
00000000: 5fb1 c33e e819 3bbe 2ad8 44bf f4cb fbba
00000010: 510f ff3e bf0f b03b 07d3 00be f026 5e3f
00000020: 9823 3d3e 7908 b43d c75c 0cbd db16 cdbe
00000030: 870d 1cbd 4af3 89bd 9bb8 a7bd 0797 003d
00000040: 0ab5 99bd 0d46 a23e 685c dabe e812 c5bd
00000050: b65e 083f a83e 623a 9c51 3bbe 6c69 f7be
00000060: 8af1 893e 9545 ae3d 40f2 c63d 3572 3cbd
00000070: f4c5 723e e0bf f6bd 8325 243e db54 57be
00000080: e91a 28bf a634 1b3e 6ac9 98be 7a24 ee3e
00000090: 68f8 01bf 4992 fbbe c407 093d f8d0 16be
000000a0: f9db 193e 1466 8d3d 04e8 1d3e d791 da3e
000000b0: 5202 92be c45e 3d3e c471 fa3d 2bdb 66be
000000c0: 4c1b 0d3d 9ec6 febe 2b17 2ebe d09d 85be
000000d0: bd3c 55bd 8259 f4bd 2c46 77bd e29f 53be
000000e0: e4b3 7f3e d754 953e 1bdb 99bd dd14 00bf
000000f0: 586f ba3e 4081 bfbd 4ad0 f8be 5eec 803e
00000100: 7b8f 2a3e a38a b23b 438b 893e cca0 0bbf
00000110: 5c55 be3e de5a d43d 6c7b eb3d 7f5a 47be
00000120: 27a1 193e 7e75 1ebd 45b5 963e 29b9 fdbe
00000130: 41fe 02bf 8793 8b3c 0bf8 10be 76f4 92bd
00000140: 0667 a23e 473d d03b 9bcd 35be eac6 703e
00000150: da70 803e b9b4 a1bd 1e3c 8dbe 4dde 763f
00000160: 3dde a63e dfd0 063e 9273 5e3e f347 90be
00000170: 184e 8f3c b866 23bd 314c 2c3e 1ce1 cb3d
00000180: eec1 9a3e 70fc 22be 99e6 c33e d8d3 78be
00000190: 27de 743e 9161 e9bd 2929 6f3e d9fd 0abf
000001a0: 426b 85be ab1b fdbd 5687 97be 08ed b13e
000001b0: 1d42 96be 4e68 b83d 6bbd ddbe 949a 66bd
000001c0: 0cbe d5be 7fca 4e3d 1dd7 1e3e b733 103e
000001d0: e24a 0c3e 3546 c7be 7a9a 45be 2853 543e
000001e0: a692 d03e 82a0 9c3e 4a41 0abf 364f 223e
000001f0: 1069 16bf 6a7a 41bc 519d 793e 35ef 47be

bias f4 [8]
0.9994176 0.2577104 0.16497013 0.055668227 0.20589449 0.3244927 -0.49314156 -0.19242284
00000000: d5d9 7f3f 9ef2 833e eeed 283e 5e04 643d
00000010: 01d6 523e e823 a63e 0d7d fcbe 7e0a 45be

weight f4 [16, 8]
1.0546626 -0.02112032 -0.62822425 -0.6536928 0.59209365 -0.79822934 -0.17728601 0.67758465
-0.3664683 0.013158989 -0.13625424 -0.42167485 0.5077993 0.004666779 -0.4404953 -0.0043532727
-0.7442582 -0.515205 0.25171766 0.16815336 -0.23090452 0.6811338 -0.5655546 -0.56001616
-0.010476222 -0.1425867 0.10593047 -0.14682081 0.19797163 -0.18164283 -0.12706931 0.08432959
-0.48139858 -0.35011536 0.038469583 -0.16323428 0.47717065 0.58100057 -1.0237055 -0.30595556
0.42732006 0.10242867 -0.30801344 -0.3592699 0.34660318 -0.24606986 0.02342024 0.6053243
0.25186738 -0.6066314 -0.026613707 -0.17464347 -0.1996037 -0.107869714 -0.058018915 -0.10484464
0.28529137 0.34279752 -0.4176524 -0.05916928 0.16989192 -0.37373173 -0.018767618 0.303382
-0.781931 -0.33739647 0.3475628 0.092882685 -0.30361646 0.59475297 -0.3761704 -0.6372346
-0.41132632 0.2819763 0.21100311 0.428533 -0.42715374 0.14471997 0.15154254 -0.2547461
-0.14442044 -0.49995646 -0.14889513 -0.4937722 0.36877415 -0.01259984 -0.34074643 0.19371341
-0.405285 0.13329336 0.59341073 0.13985243 -0.2137822 0.20724937 -0.11744534 -0.7160142
0.3541395 0.35068554 -0.23452783 0.363618 -0.1988585 -0.38007367 0.5110691 0.014508974
-0.033485316 0.22284369 0.3666773 0.3607481 -0.18605958 0.096944325 0.31696343 -0.29438677
0.24507114 0.033547238 -0.20812252 -0.40316018 0.30351055 -0.39806038 -0.0918888 0.33666167
-0.104952104 0.32858956 0.14853275 0.4147943 -0.096893266 -0.052378356 0.25094357 -0.18918166
00000000: 2fff 863f 8504 adbc 4ed3 20bf 6958 27bf
00000010: 7393 173f c258 4cbf 778a 35be 3076 2d3f
00000020: bca1 bbbe cd98 573c 3b86 0bbe c4e5 d7be
00000030: 23ff 013f c8eb 983b 9a88 e1be e6a5 8ebb
00000040: b587 3ebf 7ae4 03bf 23e1 803e 6530 2c3e
00000050: 3c72 6cbe c95e 2e3f 30c8 10bf 385d 0fbf
00000060: 76a4 2bbc 3f02 12be 13f2 d83d 3258 16be
00000070: 13b9 4a3e 9400 3abe 751e 02be feb4 ac3d
00000080: e079 f6be 5242 b3be 4892 1d3d e326 27be
00000090: b64f f43e 74bc 143f c808 83bf 35a6 9cbe
000000a0: b2c9 da3e 1fc6 d13d f0b3 9dbe 39f2 b7be
000000b0: f975 b13e bdf9 7bbe cedb bf3c 89f6 1a3f
000000c0: c3f4 803e 324c 1bbf fd04 dabc bdd5 32be
000000d0: ea64 4cbe ccea dcbd 3ea5 6dbd c9b8 d6bd
000000e0: b611 923e 2883 af3e 89d6 d5be 7d5b 72bd
000000f0: 26f8 2d3e c459 bfbe 8cbe 99bc e354 9b3e
00000100: a12c 48bf 3bbf acbe c0f3 b13e 4739 be3d
00000110: 9e73 9bbe bb41 183f 6899 c0be cf21 23bf
00000120: 5d99 d2be 335f 903e 3311 583e ad68 db3e
00000130: e5b3 dabe 7931 143e f82d 1b3e 156e 82be
00000140: f4e2 13be 4bfa ffbe f777 18be b6cf fcbe
00000150: f7cf bc3e 8f6f 4ebc 5176 aebe cf5c 463e
00000160: 8481 cfbe 0e7e 083e c4e9 173f 7a35 0f3e
00000170: b9e9 5abe 2e39 543e 2f87 f0bd b54c 37bf
00000180: c651 b53e 0e8d b33e 1028 70be 232c ba3e
00000190: 90a1 4bbe 0499 c2be 6dd5 023f 0cb7 6d3c
000001a0: e627 09bd 2331 643e 21bd bb3e fab3 b83e
000001b0: 6786 3ebe bf8a c63d 0849 a23e ddb9 96be
000001c0: eef3 7a3e d468 093d 121e 55be 036b cebe
000001d0: bc65 9b3e 92ce cbbe 3230 bcbd eb5e ac3e
000001e0: 21f1 d6bd e43c a83e f818 183e eb5f d43e
000001f0: fa6f c6bd b08a 56bd ad7b 803e d6b8 41be

bias f4 [16]
0.07095568 0.26187494 0.39015794 -0.14919637 0.26458555 -0.11998429 0.51656485 -0.053398043
0.4072688 0.14311148 0.07524351 0.08595718 -0.101647116 0.43648043 -0.059949268 0.14605808
00000000: 3651 913d 7914 863e c8c2 c73e efc6 18be
00000010: c277 873e 53ba f5bd 983d 043f e8b7 5abd
00000020: 8985 d03e d18b 123e 4519 9a3d 510a b03d
00000030: 5d2c d0bd 5d7a df3e 5d8d 75bd 4090 153e

weight f4 [8, 16]
0.28337672 -0.2456979 -0.57748663 -0.25956762 0.30725324 0.23403442 -0.04730021 0.29456335
-0.32093856 -0.14771278 -0.043236088 -0.46060818 -0.10596855 -0.031008543 -0.21255241 -0.13570024
-0.010730456 0.5783087 -0.22462468 0.1445813 -0.38708115 -0.50196743 0.13367026 0.20783831
0.5480932 0.25891343 0.11167345 0.07720703 -0.22295342 -0.3771913 0.42524037 0.6453695
-0.28829613 -0.32633072 0.35304552 -0.15468468 -0.34658492 0.47526506 0.25383848 -0.29117018
-0.046981785 0.45108265 -0.09237487 0.62028223 -0.31926203 0.18221642 -0.27333334 0.21826176
-0.1177364 -0.1236777 0.34032518 -0.1614884 0.51256764 0.008848005 0.111894965 0.3688176
0.00055193563 0.35657555 0.20229281 -0.057169553 0.07437395 -0.5734974 0.22772412 -0.018691368
-0.20971346 0.2680807 -0.12567171 -0.2932061 0.012632519 -0.30440754 0.18051934 0.012703334
0.37171242 0.08666265 -0.5040326 0.12856205 0.22708468 0.046691462 -0.3561176 -0.027577998
-0.20821364 0.079320446 -0.0677592 -0.09820572 0.5190775 0.0052058734 0.21582358 -0.230728
-0.28850773 -0.022196857 0.057355538 -0.011759165 -0.1954188 0.13507605 -0.09462396 -0.14426376
-0.38617092 -0.41042864 -0.2964797 0.19048615 0.33099455 -0.07679049 0.3307511 -0.18741609
0.055024985 -0.29241785 0.47246772 0.56827897 -0.16922209 -0.03610157 -0.27562338 -0.038983572
0.043385267 0.007844746 -0.3481006 -0.2474669 0.33606187 0.1487189 -0.17542785 -0.22055821
0.810941 0.39405507 -0.033696793 0.09392324 -0.02931021 -0.5126464 -0.101594694 0.115513705
00000000: c116 913e 3b98 7bbe 2ad6 13bf 0ce6 84be
00000010: 4c50 9d3e b8a6 6f3e ddbd 41bd 02d1 963e
00000020: 0f52 a4be 0542 17be 5318 31bd d6d4 ebbe
00000030: 0a06 d9bd a105 febc 57a7 59be 01f5 0abe
00000040: cbce 2fbc 0a0c 143f 0304 66be 1f0d 143e
00000050: 802f c6be f080 00bf dbe0 083e 91d3 543e
00000060: d64f 0c3f 4d90 843e 0db5 e43d b81e 9e3d
00000070: e74d 64be 381f c1be 1bb9 d93e f036 253f
00000080: 8d9b 93be d214 a7be 62c2 b43e a965 1ebe
00000090: 9473 b1be f155 f33e 1ef7 813e 4214 95be
000000a0: f96f 40bd 4ef4 e63e 092f bdbd d1ca 1e3f
000000b0: 5076 a3be f196 3a3e 59f2 8bbe 0380 5f3e
000000c0: c81f f1bd bc4a fdbd 1a3f ae3e 375d 25be
000000d0: a237 033f 39f7 103c 3029 e53d a9d5 bc3e
000000e0: c6af 103a 1291 b63e d925 4f3e 9f2a 6abd
000000f0: 5f51 983d bad0 12bf 8330 693e a41e 99bc
00000100: 20bf 56be e041 893e 16b0 00be 1c1f 96be
00000110: a0f8 4e3c 4edb 9bbe 10da 383e a521 503c
00000120: 1751 be3e 307c b13d 4808 01bf c5a5 033e
00000130: e388 683e 8c3f 3f3d 0c55 b6be 41eb e1bc
00000140: f535 55be c272 a23d 56c5 8abd 1520 c9bd
00000150: 43e2 043f 0896 aa3b db00 5d3e f643 6cbe
00000160: 49b7 93be 2fd6 b5bc a4ed 6a3d 83a9 40bc
00000170: de1b 48be 6051 0a3e 35ca c1bd e1b9 13be
00000180: 32b8 c5be b423 d2be 30cc 97be cd0e 433e
00000190: 1e78 a93e 5544 9dbd 3558 a93e 01ea 3fbe
000001a0: e161 613d cbb7 95be 4ae7 f13e bb7a 113f
000001b0: 8e48 2dbe 3ddf 13bd 821e 8dbe 3dad 1fbd
000001c0: c0b4 313d 4087 003c 3e3a b2be f767 7dbe
000001d0: 4d10 ac3e c449 183e 5ca3 33be 03da 61be
000001e0: d499 4f3f 96c1 c93e a605 0abd d45a c03d
000001f0: f71b f0bc cb3c 03bf e110 d0bd 7392 ec3d

bias f4 [8]
-0.020718513 0.053350743 0.19180077 0.22352415 0.48277074 0.45945248 -0.25517955 0.027962187
00000000: dfb9 a9bc 4f86 5a3d 6c67 443e 84e3 643e
00000010: ba2d f73e 5b3d eb3e e5a6 82be f510 e53c

weight f4 [16, 8]
-0.48306948 0.666149 -0.034383368 0.2066292 0.5865756 -0.1649714 0.795484 0.33523804
0.7668631 -0.07798692 -0.22226301 0.32536176 0.3331499 -0.57520276 0.5613842 0.33061227
0.18687862 -0.37176254 0.033522304 -0.5870123 -0.09608739 0.2266167 -0.3524768 0.07929331
0.14400584 0.022537293 0.09434295 0.38892063 0.18082279 0.04822592 0.12115879 0.2239283
0.23616792 -0.050705947 -0.4021292 -0.33045736 0.4213174 -0.038328268 0.38149086 0.17194659
-0.13611308 0.51536685 0.4250704 0.23961145 0.2862245 0.35057986 0.21235165 0.396822
-0.6215835 0.036668073 0.61644256 -0.6377353 -0.1553655 -0.13838217 -0.28938764 0.2971658
0.019741144 0.31901336 -0.23340437 0.2095715 0.16447783 -0.27624094 0.35794616 -0.30202633
0.39356008 -0.58377486 -0.4174886 -0.46474928 -0.22802715 -0.07830802 -0.30129257 0.16126388
0.28942144 -0.32098797 -0.31735525 0.27873158 -0.48547345 0.2639163 -0.30058953 -0.34301552
0.11576789 0.24570002 0.27661675 -0.19802049 0.2170269 -0.40614793 0.23792927 0.5525732
0.47221726 -0.7154379 -0.4531469 0.18320552 -0.24449314 -0.22002201 -0.22439253 -0.26633942
-0.16307503 -0.017509852 -0.21874014 0.36907536 -0.15596716 -0.052566927 -0.08884034 -0.40899205
-0.067857414 -0.4503938 -0.26670343 -0.05754226 -0.23162326 -0.033823963 -0.16075158 -0.40319332
0.07248024 0.24345057 -0.118484944 0.38002175 0.3739066 -0.20739149 0.25691092 0.25966007
0.13519657 -0.37064046 -0.48084393 0.24088255 -0.13853595 -0.2798984 0.009511314 -0.67926747
00000000: e254 f7be be88 2a3f 93d5 0cbd 9b96 533e
00000010: d229 163f 43ee 28be d7a4 4b3f 52a4 ab3e
00000020: 2451 443f 9bb7 9fbd ea98 63be d195 a63e
00000030: a092 aa3e 7d40 13bf e0b6 0f3f 0346 a93e
00000040: 1c5d 3f3e a957 bebe af4e 093d 7046 16bf
00000050: 77c9 c4bd 350e 683e d777 b4be 8864 a23d
00000060: 4476 133e 21a0 b83c e036 c13d 9b20 c73e
00000070: 9c29 393e 8b88 453d 1a22 f83d 764d 653e
00000080: 01d6 713e 0ab1 4fbd e1e3 cdbe b531 a9be
00000090: eab6 d73e 1afe 1cbd c552 c33e c412 303e
000000a0: 3a61 0bbe 15ef 033f d4a2 d93e b45c 753e
000000b0: 058c 923e 347f b33e b672 593e 412c cb3e
000000c0: 1920 1fbf 4331 163d 2ecf 1d3f 9f42 23bf
000000d0: 2218 1fbe 0eb4 0dbe 9e2a 94be 1e26 983e
000000e0: 2eb8 a13c b855 a33e 8e01 6fbe e999 563e
000000f0: e06c 283e 746f 8dbe b844 b73e 32a3 9abe
00000100: b580 c93e 4572 15bf 11c1 d5be 9ef3 edbe
00000110: f37f 69be f55f a0bd 0543 9abe 5c22 253e
00000120: 0c2f 943e 8958 a4be 637c a2be e8b5 8e3e
00000130: fa8f f8be 0a20 873e dfe6 99be bb9f afbe
00000140: b717 ed3d c998 7b3e b6a0 8d3e e2c5 4abe
00000150: 4d3c 5e3e 9ff2 cfbe bba3 733e 7075 0d3f
00000160: 76c6 f13e f026 37bf df02 e8be 3a9a 3b3e
00000170: 695c 7abe 734d 61be 28c7 65be a45d 88be
00000180: 24fd 26be d270 8fbc 6afd 5fbe 72f7 bc3e
00000190: dbb5 1fbe 6b50 57bd edf1 b5bd 6867 d1be
000001a0: d4f8 8abd 049a e6be 5a8d 88be 6fb1 6bbd
000001b0: a62e 6dbe ff8a 0abd 109c 24be 5b6f cebe
000001c0: 8570 943d 1b4b 793e 3ca8 f2bd 3692 c23e
000001d0: b070 bf3e 6f5e 54be d489 833e 2af2 843e
000001e0: f870 0a3e 96c4 bdbe 2d31 f6be eaa9 763e
000001f0: 5edc 0dbe d84e 8fbe 58d5 1b3c 79e4 2dbf

bias f4 [16]
0.38278356 0.04164668 0.33547062 0.2305899 0.36007053 0.14805813 0.06488092 0.27288738
-0.105192 0.073798604 -0.48642924 0.020610841 -0.040179994 -0.20381774 -0.42673308 -0.3867259
00000000: 35fc c33e b695 2a3d cec2 ab3e c21f 6c3e
00000010: 2a5b b83e 8d9c 173e 4ae0 843d e5b7 8b3e
00000020: e76e d7bd b923 973d 410d f9be 11d8 a83c
00000030: c793 24bd 99b5 50be c27c dabe f000 c6be

weight f4 [8, 16]
-0.26722172 0.0680528 -0.17696683 -0.40968964 0.7907631 0.038530745 0.18816805 -0.05761864
-0.050672866 0.23266615 0.23964693 -0.20096079 -0.18452187 -0.4065802 -0.036862914 -0.035501838
-0.2139606 0.43780485 -0.50669754 -0.04413211 0.27181816 -0.3507392 0.04272819 0.17366005
0.7076288 0.40713125 -0.41606405 -0.1746816 -0.55846804 -0.17632973 0.5276904 0.5344824
-0.19216505 -0.054742035 0.17843504 -0.31525868 -0.066971056 0.84957105 0.15008484 -0.05236365
0.15715082 0.22536941 0.27480295 0.112708226 -0.14436673 0.20981462 -0.14171715 0.29352972
-0.25653225 -0.0009575495 0.24791908 -0.08188894 -0.079295434 0.59341705 0.25626782 -0.35094753
-0.1925749 0.45777377 -0.10260344 0.39979675 -0.27429542 0.26257858 -0.10833072 0.022479821
0.15159018 -0.041905325 0.21426326 0.2306647 0.2796621 0.046849955 0.09369754 0.09475216
-0.17258742 -0.20414853 -0.12916274 0.13205986 -0.12514806 -0.4545442 -0.096103735 -0.22213869
0.13277091 0.058541734 -0.07861497 -0.2469277 0.12560241 0.11309996 0.14570427 -0.21607983
-0.34340337 0.15085225 0.19787684 -0.077691026 0.5207231 -0.20709178 0.37801853 -0.114236064
-0.10806984 -0.12829322 0.056848135 0.058227573 0.30519596 -0.1933615 0.27716985 -0.3983087
-0.24720514 0.042832073 -0.25991073 0.40719083 -0.18599318 -0.29264364 0.34731373 0.35465688
0.19457328 -0.20927367 0.505516 -0.2165079 -0.1501262 -0.081727594 0.26051795 -0.18077458
0.04618013 0.13899292 -0.43736744 0.6218337 -0.28344658 -0.28907213 -0.24011745 0.30536437
00000000: 49d1 88be 445f 8b3d cb36 35be d7c2 d1be
00000010: 736f 4a3f 6ad2 1d3d 20af 403e 8601 6cbd
00000020: 5a8e 4fbd 0940 6e3e 0166 753e aac8 4dbe
00000030: 4df3 3cbe 482b d0be 91fd 16bd 606a 11bd
00000040: 7d18 5bbe f527 e03e eeb6 01bf dfc3 34bd
00000050: c02b 8b3e 1794 b3be c103 2f3d f1d3 313e
00000060: 2927 353f 8273 d03e 5906 d5be bcdf 32be
00000070: c3f7 0ebf c88f 34be b816 073f d7d3 083f
00000080: eac6 44be 2f39 60bd adb7 363e 9669 a1be
00000090: 1f28 89bd 7d7d 593f d7af 193e 447b 56bd
000000a0: 25ec 203e 3dc7 663e f9b2 8c3e 92d3 e63d
000000b0: dfd4 13be a5d9 563e 4d1e 11be 8749 963e
000000c0: 3258 83be 0f04 7bba 80de 7d3e 63b5 a7bd
000000d0: a565 a2bd 2eea 173f 8935 833e 65af b3be
000000e0: 5b32 45be 5361 ea3e c121 d2bd 29b2 cc3e
000000f0: 7370 8cbe b370 863e 7fdc ddbd 9a27 b83c
00000100: 753a 1b3e eba4 2bbd d467 5b3e 5e33 6c3e
00000110: df2f 8f3e bde5 3f3d 7fe4 bf3d 6c0d c23d
00000120: c2ba 30be 500c 51be 3d43 04be b33a 073e
00000130: d026 00be 04ba e8be 09d2 c4bd 5378 63be
00000140: 19f5 073e 75c9 6f3d e300 a1bd 9dda 7cbe
00000150: eb9d 003e f4a0 e73d 8033 153e 0844 5dbe
00000160: 91d2 afbe 0379 1a3e 3aa0 4a3e 791c 9fbd
00000170: 1c4e 053f de0f 54be a58b c13e 99f4 e9bd
00000180: b853 ddbd 4c5f 03be 97d9 683d 0980 6e3d
00000190: a542 9c3e 8f00 46be 35e9 8d3e 1eef cbbe
000001a0: 5823 7dbe af70 2f3d 0513 85be 517b d03e
000001b0: ff74 3ebe 63d5 95be 1bd3 b13e 9695 b53e
000001c0: 383e 473e d64b 56be 7f69 013f 3fb4 5dbe
000001d0: afba 19be cc60 a7bd 9c62 853e f91c 39be
000001e0: 6027 3d3d 2954 0e3e a0ee dfbe 7e30 1f3f
000001f0: e91f 91be 4301 94be 59e1 75be b858 9c3e

bias f4 [8]
0.86014414 0.33049518 0.22068882 -0.6322283 0.561065 0.4004801 -0.0010908393 -0.43141344
00000000: 6832 5c3f aa36 a93e 40fc 613e b7d9 21bf
00000010: f5a1 0f3f ba0b cd3e 7efa 8eba 39e2 dcbe

weight f4 [16, 8]
-0.41288367 -0.9034988 0.21893208 0.11023486 -0.5722862 0.21157761 0.3593567 -0.17448409
-0.54458576 0.10266651 -0.30394584 0.7336136 -0.16909838 0.32449034 -0.4296514 0.31121194
0.2588665 0.44885734 -0.35805684 -0.18297046 0.4382448 0.3998933 -0.20705119 0.44327947
-0.4125442 -0.022254366 -0.1561971 0.11872757 -0.104469635 0.09839417 -0.064372 0.009374561
-0.33151877 0.014884073 0.07146949 0.51000965 0.26961693 0.740471 -0.19383153 0.73328507
-0.36462748 -0.7141714 0.04398027 -0.35504884 -0.30724752 -0.16214256 0.14563578 -0.39784685
0.8754375 -0.192248 -0.5463843 -0.78279305 -0.18796867 -0.10923474 0.33223566 -0.27872765
-0.21461204 -0.22971363 0.26713797 0.2710321 0.046142396 0.04802348 -0.018926937 0.008619313
0.33568728 0.6250495 -0.27839467 0.6388701 0.24109322 0.05786972 -0.62021846 0.613723
0.07529088 0.48031 0.071895055 0.3345241 0.079930834 -0.25148615 -0.5467629 0.21815923
0.0009883615 -0.21262182 -0.49533096 0.16454381 0.12804063 0.34397176 -0.23090357 -0.18736933
0.14384653 0.68089664 -0.2250528 0.86188036 -0.13056055 -0.31726518 -0.40894553 0.60692763
-0.20526005 0.097991005 0.27657345 -0.2490733 0.056520704 -0.24744985 0.2455241 -0.3603074
0.16442548 0.3930981 0.19537681 0.19810113 -0.07374937 -0.01812489 -0.0707973 0.18950851
-0.46478793 -0.33113116 0.052442286 0.20299357 -0.05151169 0.096474454 -0.11671974 -0.024090137
-0.17191066 0.49791554 0.50326383 0.15760927 0.58312917 0.0199299 -0.05913383 0.060617197
00000000: 7d65 d3be b34b 67bf bb2f 603e d0c2 e13d
00000010: 5981 12bf cda7 583e 9afd b73e f5ab 32be
00000020: f969 0bbf d242 d23d ca9e 9bbe 1ace 3b3f
00000030: 2028 2dbe 9923 a63e 45fb dbbe 2c57 9f3e
00000040: 268a 843e a1d0 e53e 3a53 b7be 9c5c 3bbe
00000050: 9f61 e03e d1be cc3e 3a05 54be 87f5 e23e
00000060: fe38 d3be ca4e b6bc 22f2 1fbe 7127 f33d
00000070: 2df4 d5bd e282 c93d 78d5 83bd c297 193c
00000080: d4bc a9be 54dc 733c 995e 923d fe8f 023f
00000090: 3b0b 8a3e 828f 3d3f c67b 46be 92b8 3b3f
000000a0: 74b0 babe f0d3 36bf a824 343d f6c8 b5be
000000b0: 8c4f 9dbe b308 26be 8c21 153e 95b2 cbbe
000000c0: ac1c 603f a9dc 44be d7df 0bbf 2065 48bf
000000d0: dc7a 40be 77b6 dfbd cb1a aa3e 64b5 8ebe
000000e0: 42c3 5bbe 0d3a 6bbe 4fc6 883e b8c4 8a3e
000000f0: cfff 3c3d 45b4 443d aa0c 9bbc 0538 0d3c
00000100: 34df ab3e 3e03 203f bf89 8ebe fe8c 233f
00000110: 24e1 763e cd08 6d3d a3c6 1ebf f31c 1d3f
00000120: 1b32 9a3d 31eb f53e b73d 933d be46 ab3e
00000130: c7b2 a33d cbc2 80be a7f8 0bbf 2265 5f3e
00000140: e98b 813a 89b9 59be 059c fdbe 2c7e 283e
00000150: 151d 033e 111d b03e fc71 6cbe bfdd 3fbe
00000160: 814c 133e 3e4f 2e3f 3e74 66be 31a4 5c3f
00000170: aab1 05be 9570 a2be 4f61 d1be 9c5f 1b3f
00000180: b12f 52be 82af c83d 099b 8d3e 120d 7fbe
00000190: 4182 673d 7e63 7dbe ab6a 7b3e 367a b8be
000001a0: 275f 283e 2744 c93e dc10 483e 06db 4a3e
000001b0: e909 97bd a67a 94bc 2dfe 90bd 850e 423e
000001c0: aff8 edbe 068a a9be b9cd 563d 8cdd 4f3e
000001d0: ecfd 52bd 6694 c53d c20a efbd ae58 c5bc
000001e0: 5909 30be c9ee fe3e e6d5 003f 5364 213e
000001f0: f447 153f 0844 a33c 5136 72bd bd49 783d

bias f4 [16]
-0.08049507 -0.19413856 -0.106857 0.0036094855 0.36423513 -0.31063998 -0.051883385 0.17230417
0.39818048 0.114373416 -0.10381623 0.15326594 -0.5601405 -0.13548088 0.06218385 -0.26327756
00000000: 99da a4bd 42cc 46be d8d7 dabd 1e8d 6c3b
00000010: 077d ba3e 340c 9fbe ac83 54bd 8170 303e
00000020: 50de cb3e 9c3c ea3d 9b9d d4bd bff1 1c3e
00000030: 5e65 0fbf 80bb 0abe 7eb4 7e3d 51cc 86be
