testcode/models/mapping.pth (torch, 9359 bytes, 12 tensors)

weight f4 [8, 16]
00000000: e0bc 9bbd aeb1 cd3c 2c83 13bd e093 8f3e
00000010: 3630 c7bd e380 173e 8aa9 afbe 8a85 85bd
00000020: 8a92 c0be fe27 ecbd dcb1 13be 4e2c 22be
00000030: d09f 4bbf e9ed fdbd 45b0 f8bd 29f3 f13d
00000040: cb2a 77bb 116d b53d 32a2 7f3e 5e6a 44be
00000050: 23bd 853e 07c7 693b ecc5 8abe 1532 b83e
00000060: 4bac 0e3e 6e30 733b 3404 be3e c696 823d
00000070: 6a2c 043e 08b3 8dbe a020 e1bd 5f05 adbd
00000080: 1195 97be 80dd febd eb50 a63c 2d25 b13e
00000090: 3535 493d 5939 7b3e 30a4 0dbe 892b 633e
000000a0: 8608 89be 84ee 8bbe c2b6 48bc 7041 95be
000000b0: 9e05 05be 3c5f 99bd df78 dcbe c03d 993e
000000c0: d045 abbe d29f e1be a4ff e43d 59b6 41be
000000d0: f708 8abe c12e a23e 7426 863e a07d 12bf
000000e0: 296d 8dbe 30f3 a5be 341b 66bd 6fbf acbe
000000f0: 5305 ee3d ce71 b13a 3c5c 81bd 3615 203d
00000100: 5a12 abbe aac9 8b3e 04b6 f73e 8d80 1bbe
00000110: 53f3 eebe f872 67be 2d8d e8bd ec23 cfbd
00000120: acb9 9a3e a2e0 913e f7e5 153d 9981 c2be
00000130: bf0e 5cbe cfb8 8abe 92d4 643d aec4 99bd
00000140: a5d7 94be 1a79 d33c e0b5 023d 2d63 4cbe
00000150: c92f 1ebe 3902 003d 9204 9c3e faf0 0ebf
00000160: 6b6f 95be 8ddd d63c e449 51be ae5f 38bf
00000170: 4e3d 91be e792 03bf 5aa3 0cbe 4534 103e
00000180: 5f5d 823e 1392 93be 47b2 973e 5e20 6dbe
00000190: 08c3 28bf 3843 3c3c cd0e 79bf dae6 5a3d
000001a0: 1743 f93d 7114 213f 29c3 48be be5a d3be
000001b0: 3b19 5ebe efa3 08be 8182 19bd 142d 173e
000001c0: 252b 4c3d 97b7 41be dd23 ba3e 7f22 c23e
000001d0: 16a3 3dbe 76a2 2abe 9226 9b3e 9843 a73e
000001e0: a6f5 d53d 9964 d83e aad3 05bc 33e4 16bf
000001f0: d99c e4be 5edd 133d 7db2 03bf ad86 2b3e
-0.076043844 0.025109138 -0.036013767 0.28042507 -0.097259924 0.1479526 -0.34309036 -0.06519611
-0.376118 -0.115310654 -0.14423317 -0.15837213 -0.7954073 -0.123988934 -0.12142996 0.11813957
-0.0037714716 0.088586934 0.24964216 -0.19181201 0.26120862 0.0035671608 -0.27104127 0.3597571
0.13932912 0.0037107724 0.37112582 0.06376414 0.12907568 -0.27675653 -0.10992551 -0.0844829
-0.29605916 -0.124445915 0.020302257 0.34598675 0.049123008 0.24533595 -0.13832164 0.22184576
-0.26764315 -0.2733041 -0.012250604 -0.29151487 -0.12990424 -0.07488868 -0.43060967 0.29929924
-0.334517 -0.44067246 0.11181572 -0.18917216 -0.26959965 0.31676295 0.26201212 -0.5722294
-0.27622345 -0.324121 -0.056178287 -0.33739802 0.11622109 0.0013537945 -0.063164204 0.03908273
-0.3341244 0.27302295 0.48381054 -0.15185757 -0.46670017 -0.22602451 -0.11355052 -0.101142734
0.3021978 0.28491694 0.036596265 -0.379895 -0.2149 -0.27094123 0.055866785 -0.07508217
-0.29070774 0.025814582 0.03191173 -0.19959708 -0.15447916 0.03125212 0.30472237 -0.5583645
-0.29186568 0.02622869 -0.20438343 -0.72020996 -0.28367084 -0.5139603 -0.13734189 0.14082439
0.25461861 -0.28822383 0.29628202 -0.23156878 -0.65922594 0.011490636 -0.9728821 0.053442813
0.121709995 0.62921816 -0.19605698 -0.41280168 -0.21689312 -0.13343786 -0.037477974 0.1476329
0.049845833 -0.1891769 0.36355487 0.37916943 -0.18519244 -0.16663536 0.30302864 0.32668757
0.10447244 0.4226425 -0.00816814 -0.58941954 -0.44650915 0.036099784 -0.51444227 0.16750593

bias f4 [8]
00000000: 34e1 ad3f 8144 893f d997 c13f 08d4 543f
00000010: b58c ed3e 107c 173f d3e6 883d 8e03 9a3f
1.3584352 1.0724031 1.5124465 0.83136034 0.46396413 0.5917368 0.06684651 1.2032335

weight f4 [16, 8]
00000000: 8236 f83d c731 443b f574 e5bd 2cc8 7ebe
00000010: 55e9 3a3e 6cd3 653e c776 dd3d 198e b83e
00000020: d68e 2ebe 536b 7c3c ec27 86bc c6f7 213e
00000030: 72aa 9fbd 8217 2dbf fa5c 4fbe 926f 8e3d
00000040: 0980 043f c30a 6a3e 490a 37bf 1f77 28bf
00000050: 2e0a ba3b 464c c83e d7dd 053f 23e9 443f
00000060: 670b 903e 6d0c 1e3f a68b 79be f511 8a3d
00000070: c81d 0c3e 7b7d 913e bca1 a13d bb3f 93be
00000080: 23d8 26be 72d1 5dbd 6f01 5e3e 58fa 46be
00000090: 485b abbd 2f18 233e 8eae d8bd 9884 60be
000000a0: 5f9f f83d 4b09 62bc 608b 83bd 3c81 8b3e
000000b0: a182 683f 5777 27be 3f32 36be b0da d0be
000000c0: d740 713d 8ed7 08be f648 eebd 8e5e eb3d
000000d0: 8c33 65be 16c7 2fbd 7513 c93e 6a7c 443e
000000e0: 5b1e 6bbf 9104 9b3c b08d 12be cb2f d33c
000000f0: 9d2c 49be ffa3 823e 4469 c9be 9798 0abf
00000100: 8ad3 f63e 7792 833e a57a 9bbd d559 b3be
00000110: ac79 f1bd ac63 1bbe eac7 e03d 647f 89be
00000120: 8562 883e a778 08be 292d 6d3e 568e 2e3e
00000130: 3a31 7f3e cb40 c039 696f 8a3e 94e0 ae3e
00000140: 9aaa f03d adb2 ba3d 11be 4abf 2614 2bbf
00000150: 91c5 d7be bae1 223f 8105 88bc db55 c43e
00000160: 7ac6 e1be de22 c2be 5d28 d13e b54e 2e3f
00000170: ff26 a53e b5f8 5abe ebc4 2dbf 2e07 4bbf
00000180: 4d5a 383e e8d9 503d 4167 65be d1f5 3dbe
00000190: c21e 95be ee5b 243e 5ab1 83be e94f ddbe
000001a0: 5daf fd3e f9c1 88be 3f5f 75bf ddd2 09bd
000001b0: af60 fdbe 82f5 163d 8b6c 1ebf eaee 05be
000001c0: 7de7 283f 02fc 7dbf 541e ffbe 4c18 053e
000001d0: 8257 f23d 7edb 2dbe 35df 653e 449d f63e
000001e0: 6eb5 25bc 4fa8 bfbe 0eb2 863f ccd5 5dbe
000001f0: c4a6 bc3c ab0a 24bf 3178 afbe 4dfc 7e3e
0.121197715 0.0029936896 -0.112039484 -0.24881047 0.18253072 0.22443932 0.108136706 0.36045912
-0.17046675 0.015406447 -0.016376458 0.15817174 -0.07796182 -0.67613995 -0.20250311 0.06954874
0.51757866 0.22855668 -0.7150007 -0.65806764 0.005677483 0.39120692 0.52291626 0.7691824
0.281337 0.6173771 -0.24369678 0.06741706 0.13683236 0.28416047 0.078921765 -0.2875956
-0.16293387 -0.05415482 0.21680234 -0.19431436 -0.0836702 0.15927194 -0.10580169 -0.2192558
0.121397726 -0.013796161 -0.06423068 0.27247036 0.90824324 -0.16354118 -0.17792605 -0.40791845
0.058899727 -0.13363478 -0.1163501 0.11492644 -0.22382945 -0.042914473 0.39272657 0.19188085
-0.91843194 0.018923076 -0.14311862 0.025779625 -0.19645925 0.25515744 -0.39338124 -0.54139084
0.48208266 0.2569768 -0.07591752 -0.35029474 -0.11790785 -0.1517474 0.109756306 -0.26855004
0.26637664 -0.13327275 0.23161758 0.17046484 0.24921122 0.00036669368 0.27038124 0.34155715
0.1175129 0.09116111 -0.7919627 -0.6682762 -0.4214292 0.6362568 -0.016604187 0.38346753
-0.44096738 -0.37917227 0.40851107 0.6808885 0.32256314 -0.21383937 -0.678786 -0.7930783
0.18003197 0.05098906 -0.2240267 -0.18550803 -0.2912503 0.16050693 -0.25721246 -0.4322503
0.49547854 -0.2671049 -0.9584846 -0.03364836 -0.49487826 0.03685523 -0.61884373 -0.1307942
0.65978223 -0.9921266 -0.49827826 0.1299755 0.11833097 -0.16978261 0.22448428 0.4816686
-0.010114057 -0.37433097 1.0523088 -0.21663588 0.023028739 -0.6407878 -0.34271386 0.24900933

bias f4 [16]
00000000: fe01 2b3f 50dd 623d d087 40be 1c77 093f
00000010: 8ea9 d1bd e09a 8dbe 9318 813e b489 31be
00000020: bd9b b6be b949 a33e 9893 2a3e adec 61be
00000030: 7bf6 c1be f65f d13e 25c2 263e 8843 533e
0.66799915 0.05538684 -0.18801808 0.5369737 -0.10237418 -0.27657223 0.2521406 -0.17337686
-0.35665694 0.31892183 0.16657865 -0.22062941 -0.37883362 0.40893525 0.16284998 0.2063123

weight f4 [8, 16]
00000000: 9a3e 8ebc 899f 733e eb55 e2be 6148 9fbe
00000010: 773c d1bd dc06 81bd aca9 36be cd61 043f
00000020: 7013 d6bb 88f3 013d 1ad5 62bd 0847 433e
00000030: 3f09 a93e 0b32 bcbe 3a5e 0bbe ead4 9ebe
00000040: ae54 743d 9e4e b5bd 07ca fe3e ef98 903e
00000050: 5b80 a13e 200d 663e c6c0 413e d8db c9be
00000060: 5935 503e 560e 433e 4d22 183d 0206 ebbd
00000070: c4c4 38bf 1af4 debd c213 e5bd 8488 213f
00000080: 5e39 12bf 6bdd 1a3d 97cb 7e3e 0e5d 77be
00000090: 8809 1a3d 1506 a73e 7a55 f4bd 3825 1dbf
000000a0: 893e 163d 5733 22be 1bde b53c 129c 0fbc
000000b0: bb23 ffbe bc65 87be 4269 bebe 888e 2bbc
000000c0: 017d 0fbd 73fc 52bc 913f ba3e f2c7 f1bd
000000d0: f5ab 3a3e b59c b8bd 318b 2a3e 1c38 2bbf
000000e0: e11d 82be 9e8f 9fbc fff3 eb3d e714 d6bd
000000f0: 194b 8cbe 3123 cf3c 90f3 57bd 28dd c13e
00000100: 5f2c a0bd 2803 b4bc 4a8c 11be c57c 65be
00000110: 3f3c 91be 9dae 39be 79db 41bd 4855 88be
00000120: ef5c 113e ae9e 2fbf 2535 9cbe 99ba bfbd
00000130: 0c33 723d 3e06 f93d 2eb8 34be ade0 14be
00000140: b831 6d3e 7e18 363b 1c85 533f cf87 593d
00000150: 6bd0 c5be 4759 9f3d ad3e ae3e fb2d 023f
00000160: 3671 9b3d 4419 f33e 02c4 7ebd 58ce 7ebe
00000170: 90b8 00bf bacf 023e 3c86 03bf a539 5c3d
00000180: 032a 11be 4c33 4a3e 7682 673e ed98 0e3f
00000190: 8042 433e 2c92 3c3e 0c39 88be a01e bf3e
000001a0: ce56 ebbc e552 d03e 36d7 083e 5b19 9d3d
000001b0: f581 ffbe 5c40 123e caaa dcbe 2e18 6abe
000001c0: 5b6c 413e 46a4 26be 8603 2ebd 00fe d0bd
000001d0: 18ae edbe 3fe7 473e b391 44bf 40e0 873d
000001e0: 177c 0e3e c327 aabe 8bbc 1abe d360 b9be
000001f0: 3e88 91bd e008 d7be 37e3 bcbc 747a 8e3e
-0.017363835 0.23791327 -0.44206175 -0.31109908 -0.10216611 -0.063001364 -0.17838162 0.5171173
-0.006533079 0.03172639 -0.05537901 0.19070065 0.33014867 -0.3675693 -0.13610163 -0.31021816
0.05965107 -0.08852886 0.4976351 0.2824168 0.3154324 0.22465944 0.18921193 -0.3942554
0.2033285 0.19048437 0.037142087 -0.11475755 -0.7217524 -0.108864024 -0.11185409 0.6309893
-0.57118785 0.037808817 0.24882351 -0.24156591 0.037606746 0.32621828 -0.11930366 -0.61384916
0.036680732 -0.15839897 0.022200635 -0.008765237 -0.49831948 -0.26444805 -0.3718968 -0.010470994
-0.035031322 -0.012877571 0.36376622 -0.11805715 0.18229659 -0.090142645 0.1665466 -0.6688249
-0.2541342 -0.019477662 0.11521148 -0.104532056 -0.27401045 0.025285335 -0.052722514 0.3786404
-0.07820963 -0.021974161 -0.14213672 -0.22410877 -0.28366277 -0.18133016 -0.047328446 -0.26627564
0.14195608 -0.686015 -0.30509296 -0.093617626 0.059130713 0.12159394 -0.17648384 -0.14538832
0.23163497 0.0027785595 0.82624984 0.053108033 -0.38635573 0.077807 0.34032193 0.5085141
0.07589953 0.47480214 -0.062198646 -0.24883401 -0.5028162 0.12774554 -0.513767 0.05376591
-0.14176182 0.1974613 0.2260836 0.55702096 0.19068336 0.18415135 -0.26606023 0.37328053
-0.028727915 0.40688244 0.13363346 0.07670852 -0.49903837 0.14282364 -0.43099052 -0.22860786
0.1888899 -0.16273603 -0.04248383 -0.10204697 -0.46421885 0.19521807 -0.7678482 0.06634569
0.13914524 -0.3323346 -0.15110986 -0.36206684 -0.07106064 -0.4199896 -0.023057563 0.278278

bias f4 [8]
00000000: f6ba d9be d343 a13f 5bdb 683f fe00 943f
00000010: f095 4c3f 49d1 6a3f 519b 983f f810 033f
-0.42525452 1.2598823 0.9095971 1.1562803 0.79916286 0.91725594 1.1922399 0.5119777

weight f4 [16, 8]
00000000: 73e4 febd b709 393e 505d 9a3d 98ab 103e
00000010: 441c 52be 0a08 d7be ccee d63e 9688 a8bd
00000020: f2a0 94be 2056 53be 226c 363e 673c 133f
00000030: a06f 2b3e 580b 14bb 6507 b83d 13e2 533e
00000040: 55d4 09bf bfa9 763e 6b87 66bf 9c8f 2e3e
00000050: dc06 993e 6e7c 69bf 6dfe c5be d8cd 3dbf
00000060: f553 413e 5d1b 863c 3b75 13be ecc4 bfbe
00000070: 045a aabe 91a6 383e c52b 113e 8b89 9d3d
00000080: 639f 15be 62d8 b5be 2ad6 db3e 5a49 43be
00000090: c19b 733e e67f 6b3e 2fe5 a53e 5cb9 8a3e
000000a0: 5e23 55bd bd48 02be 6318 09bc a650 033d
000000b0: 6fe6 00bf 6dff 2f3f f5fe debe 3956 8b3e
000000c0: bcfc 263a 3d10 983e c40b bbbe dc93 1abe
000000d0: db7e 843e f2e4 adbe b348 14be 3c3c e6be
000000e0: 4fc2 073f 11f6 15bf 7284 993e e0bb 26be
000000f0: 03d4 c63e e9e4 283f ca57 1c3f 5645 763e
00000100: bd81 c53e b892 823e 6522 c13d 235b 86be
00000110: 0e0b 283f 8881 f03d 77d4 bf3e 18c9 3fbd
00000120: 63d6 a13d fd27 3c3e 2ac4 093e 1114 99bd
00000130: 8f30 bebe 1fd9 97be 250e 363c dc3c 4dbd
00000140: dc2f 6cbd 987f dabd 5fa7 0a3f 713d 82be
00000150: 65d4 a63e cf18 9abe 17f3 653f fec0 ffbd
00000160: 1caa 98bd 7d8c 1fbf 6bd2 92be 2512 313f
00000170: 31fd 09be 9f98 3f3f 4b70 b3be 432e 743e
00000180: d627 c13c 4a93 44be ee35 313e 40b9 b33c
00000190: 759a 723e 12f5 c73d d84d 0f3d 67f6 ff3d
000001a0: 4856 a63e 4d5f ccbe 720e d8bd a8b4 ab3e
000001b0: ba40 c83e ad2b eb3d 0e11 c2be 4200 d83e
000001c0: 9d10 393f 8527 a33f f084 a3be 80cd 2fbf
000001d0: df21 573e 1c5d bdbe 9d48 96be 3318 ad3c
000001e0: 9db8 02be 1328 153d 70e1 293f 6265 0b3f
000001f0: 92bc b6be a17f 5bbd 6f77 393f 46e8 033f
-0.12445917 0.18070112 0.07537329 0.14127958 -0.20518595 -0.4199832 0.41979063 -0.08229177
-0.29029042 -0.20638323 0.17814687 0.5751404 0.167418 -0.002258977 0.089857854 0.20691709
-0.5383962 0.2408819 -0.9005038 0.1704697 0.29888046 -0.9120549 -0.38670674 -0.7414222
0.18879683 0.01637047 -0.14400189 -0.37454927 -0.332718 0.1803229 0.14176853 0.0769225
-0.14611582 -0.3551665 0.42936832 -0.1907095 0.23789884 0.22998008 0.32401416 0.27094543
-0.052035682 -0.1272306 -0.008367631 0.032059334 -0.50351614 0.68749124 -0.43553892 0.2721422
0.0006370058 0.2969989 -0.36532414 -0.15095466 0.25878033 -0.33963734 -0.14480858 -0.4496783
0.53030866 -0.5857859 0.2998386 -0.16282606 0.38833627 0.6597429 0.61071455 0.24049887
0.38575545 0.25502563 0.09430388 -0.26241407 0.6564187 0.11743456 0.37466785 -0.046822637
0.07902219 0.1837463 0.13453737 -0.074745305 -0.37146422 -0.29657838 0.011111771 -0.05010687
-0.05766283 -0.10668868 0.5416164 -0.254375 0.3258392 -0.30097052 0.8982405 -0.12487982
-0.07454321 -0.62323743 -0.2867616 0.6916831 -0.13475491 0.74842256 -0.3504661 0.23845772
0.023578566 -0.19196811 0.17305729 0.02193892 0.23691733 0.0976354 0.034986347 0.124981694
0.32487702 -0.3991646 -0.1054963 0.33536267 0.39111882 0.1148294 -0.37903637 0.42187697
0.72290975 1.2746435 -0.3193736 -0.68672943 0.21009015 -0.369851 -0.29352275 0.021129703
-0.12765737 0.03641517 0.66359615 0.5445157 -0.35690743 -0.053588513 0.72447866 0.51526296

bias f4 [16]
00000000: 051e 9f3e 65e4 7b3d 7ce1 c13e 8f38 9b3e
00000010: b699 313e 271f 1bbe 6bbc 883e 028a ad3e
00000020: da0e 83be ad82 533e d6cb 16bd 41e9 a03e
00000030: 2e58 233e c7df debc 9e35 53bc 95ec 5d3c
0.3107759 0.06149711 0.37867343 0.30316588 0.17343792 -0.15148602 0.26706252 0.33894354
-0.25597268 0.20655318 -0.036815487 0.3142796 0.15951607 -0.027206315 -0.012891201 0.013545175

weight f4 [8, 16]
00000000: 8a82 62be 944a 49be dbce 743e 2c46 8b3d
00000010: 77f0 b53e 3ccb 9d3d f7ad bb3e f017 d0be
00000020: f78c 8cbe 1ba1 123d e789 e5bc 0564 813e
00000030: ca92 813e 0a70 b53e 9109 2f3e 5df5 bf3d
00000040: 632f b0bd a351 11be d5f2 cbbe 0fd8 efbe
00000050: 6765 d1be b06a 0bbf 2533 f8bd 51b4 e43d
00000060: 6e84 01bd 67bd 093e 91ff 52bb df81 cfbd
00000070: 5705 653d e71d 92be 7f0f 93be 8583 8dbe
00000080: 6fb9 813d 1d45 ffbe 4b03 a1be eb59 163e
00000090: 0000 863e b6d4 bf3e 1cda 74be 7e81 a4bd
000000a0: cee4 e2be 86f9 a73e e414 bf3d 80c5 ef3d
000000b0: 25f8 da3d ab59 4dbe 2886 c0bd dbfa 153e
000000c0: d693 b0bc 102b a8be 4778 d5bd 1049 47be
000000d0: 021c 083f b229 9a3e e1b8 c13e 1589 e43d
000000e0: 9928 5dbe 3cd6 fcbe 7614 93bc b79b 023f
000000f0: c8ec 8c3e 7bbd 3fbd e3fc 79bd 48f0 e63e
00000100: b7b8 723d caaa 73bd 8f4e 31bd b3ee 063f
00000110: d174 483e ad86 243e d4b3 653e 3acb fbbe
00000120: 3aa3 463e 6f9d e93d cae5 82be 4a0c 49be
00000130: 1962 9dbf 0f1a 7dbd 1100 8ebd 90e2 223f
00000140: 750d 26be 0962 26be c445 cabd b884 393d
00000150: 267d 3ebe bede 91be e39c 0f3f 03b0 36bf
00000160: f946 f2be 6568 bb3d fe1a 83be 7cec 2cbf
00000170: 1029 c7be 7b44 4abe d259 27be c892 273f
00000180: 765a 3b3e 181e febd fd4d d8be d675 ffbe
00000190: 9bb5 fcbd 73a6 423c 825c 4b3e 18f4 01be
000001a0: cace 923d e351 31bf 785c 87be 7f09 843e
000001b0: 8656 6f3e c930 15be 5be3 303d bbe7 023e
000001c0: fbae 1bbc 9d93 883e 4a19 313f 33e4 983d
000001d0: 7407 3dbf 26f1 c4bd 61ef aa3e 296e 36be
000001e0: 8631 e93d eda7 3d3f f803 103e 9246 80be
000001f0: 3bed 5dbf 1f36 5fbe 1428 55bd a54a f1be
-0.22120109 -0.19657356 0.23907034 0.068004936 0.35535023 0.077047795 0.36656162 -0.40643263
-0.27451298 0.035798173 -0.028019859 0.2527162 0.25307304 0.35437042 0.17093493 0.09372971
-0.08602788 -0.14191298 -0.39833704 -0.46844527 -0.40897676 -0.5445967 -0.1211913 0.11167205
-0.031620435 0.13451158 -0.0032195786 -0.10132193 0.055913296 -0.2853844 -0.2872276 -0.27639404
0.06334197 -0.49857417 -0.31447825 0.14682738 0.26171875 0.37466973 -0.23911327 -0.08032511
-0.4431519 0.3280756 0.093301564 0.11707592 0.10691861 -0.20053737 -0.09400588 0.14646475
-0.021554869 -0.32845354 -0.10423332 -0.19461465 0.53167737 0.30109936 0.37836364 0.11158959
-0.21597518 -0.49382198 -0.017954092 0.5101885 0.275244 -0.046811562 -0.061032187 0.45105195
0.05925819 -0.05948905 -0.04328781 0.52707976 0.19575812 0.16067 0.2243188 -0.49178487
0.19398203 0.11406981 -0.2556594 -0.19633594 -1.2295562 -0.06179243 -0.069336064 0.63626957
-0.16216071 -0.16248335 -0.09876588 0.045292586 -0.18602428 -0.2849025 0.56098765 -0.7136232
-0.47319773 0.09150771 -0.2560653 -0.67548347 -0.38898516 -0.19752686 -0.16342857 0.65458345
0.18296227 -0.12408084 -0.42247 -0.4989459 -0.12339326 0.011880505 0.19859508 -0.1269077
0.07168348 -0.69265574 -0.26437736 0.25788495 0.2337285 -0.14569391 0.043185573 0.1278371
-0.009502168 0.2667512 0.69179213 0.074654005 -0.738395 -0.09616308 0.33385757 -0.1781546
0.11386399 0.7408436 0.14064014 -0.2505384 -0.8669011 -0.2179799 -0.052040175 -0.47127262

bias f4 [8]
00000000: 4e17 8a3e ce92 aa3e 8919 a43f ab45 7cbe
00000010: dbab 403f 1b24 16bf 0582 bcbe ed07 bbbe
0.26970905 0.33315128 1.2820293 -0.24635951 0.7526223 -0.5864884 -0.36817947 -0.36529484

weight f4 [16, 8]
00000000: 7d93 c53d 8957 9d3d 0ae9 23be d815 143d
00000010: ebc2 98bd 92cb 83be 1ea2 3f3e 5cc3 993e
00000020: 13e7 91bd 7b60 f63e 284a 3abe c3c1 243e
00000030: af90 2bbd e24f 8f3e d3c9 2cbd 60a8 f5bc
00000040: 1900 db3d 12f1 b2be 9c3b 933e 33fa 81be
00000050: f1da ffbe 227c f3be 1103 f43e ada4 a13e
00000060: 3eb2 05be 3137 57be 6ec1 833d 18fc 323d
00000070: f912 e73d 8998 e1bd 453a 883e d584 57be
00000080: 872b 8abe e1a9 bc3e c709 c4be 3f0f 1b3f
00000090: 8302 773e e88c 21be 7d3e bebe a915 5cbe
000000a0: ec49 093e 02df 313e 0eda a5be ecde 31bd
000000b0: 64c8 5b3e 98a9 5c3e 19bd ad3d 552c f9be
000000c0: c702 4c3e e3df 93be b544 a63e a667 b0be
000000d0: 8ea8 f7bd 22c0 0a3d d980 fb3d 0530 343e
000000e0: 9780 bc3e 8e3f 8bbe 326a 2a3f 60c8 1f3d
000000f0: 4083 433f 9102 bbbe 9709 ffbe eb14 87be
00000100: 7316 d93e 5f84 10be 7ab1 b53e 4086 1abe
00000110: 59ed f1be e8b3 693f b348 8dbe f72c 1d3f
00000120: cd58 a33c 25f1 0fbd aad4 0cbe c8a0 47be
00000130: c8c0 5abe f331 01bd 6980 8c3e 70bb a83e
00000140: 0c85 303f 14f6 14be adff 053e d0a3 21bd
00000150: a90b 873e 6bf5 3bbf 15f8 81be 7760 b43e
00000160: 7dbc 14bd 2289 4d3e ec9b 323e 8dc2 a93e
00000170: b9fe 4a3f bbfd 43be 0e40 153d 1ebf 3ebf
00000180: af33 b9bd f29c f5bc 3d4d 16bd 2965 df3e
00000190: 0455 da3d 4739 d6be 167c debe ddcf a6be
000001a0: 3dd0 d1bd 672e b6be 8bee 983d 4f46 443f
000001b0: 53b1 06be d177 4abe 45bb 32bf f22b c5be
000001c0: 25a0 113e d7fb 52bf b4b8 163f eb37 cdbe
000001d0: 3d0b 7bbf a68c 743f 1177 93bd aab2 f43e
000001e0: c313 343e 964c 933e 0100 62bf d3ec a63e
000001f0: 67ac 50bb 3d1d a73e d839 babe 4174 2c3f
0.09647272 0.07682712 -0.16006866 0.036153644 -0.07459053 -0.2574125 0.18714187 0.3003186
-0.07124152 0.48120484 -0.18192351 0.16089539 -0.041886028 0.27990633 -0.042184662 -0.029987514
0.10693378 -0.34949547 0.28756416 -0.253862 -0.49971727 -0.47555643 0.4765859 0.3157095
-0.13056275 -0.21017148 0.06433378 0.043697447 0.112829156 -0.11015422 0.26606956 -0.21046765
-0.26986334 0.36848357 -0.3828871 0.6057014 0.24122052 -0.15776408 -0.3715705 -0.21492638
0.13407105 0.17370227 -0.32392925 -0.043425485 0.21463162 0.2154907 0.08483333 -0.48666635
0.19922934 -0.2888175 0.32474294 -0.34454077 -0.12092696 0.03387464 0.12280435 0.17596443
0.36816856 -0.27196926 0.6656829 0.039009452 0.76372147 -0.36525396 -0.49812004 -0.26383147
0.4239994 -0.14112996 0.35486966 -0.15090275 -0.47251394 0.9129014 -0.27594528 0.61396736
0.019939804 -0.035142083 -0.13753 -0.19494927 -0.21362603 -0.031541776 0.2744172 0.32955503
0.68953013 -0.14546996 0.13085814 -0.039462864 0.26376083 -0.73421353 -0.25384584 0.35229847
-0.03631257 0.20071843 0.17442292 0.33156243 0.79294926 -0.19139759 0.03643804 -0.7451037
-0.09043061 -0.029982064 -0.036694754 0.43631867 0.10660747 -0.41840574 -0.43454045 -0.32580462
-0.102447964 -0.35582277 0.074673735 0.7666978 -0.13153581 -0.19772269 -0.69817 -0.3851009
0.14221247 -0.8241553 0.58875585 -0.40081725 -0.98064023 0.9552711 -0.072004445 0.4779256
0.17585663 0.28769368 -0.88281256 0.32602558 -0.003184104 0.32639495 -0.36372256 0.6736489

bias f4 [16]
00000000: 110a 943e e8fe bb3d 66c5 a43d 176b be3d
00000010: 7134 983e b90a 273e 0ef7 9b3e 6848 893e
00000020: 706b 9ebe 7d68 023d 7bf5 79bb c9e3 a63e
00000030: 3256 00be d4ca db3e 1b94 1e3f cfcb 9b3d
0.2891393 0.09179479 0.08045463 0.092977695 0.2972751 0.16312684 0.30461925 0.26813054
-0.30941343 0.03183793 -0.0038140703 0.3259566 -0.12532881 0.42928183 0.6194474 0.07607233
