models/MLP/mapping.pth (torch, 3551 bytes, 4 tensors)

weight f4 [8, 16]
0.010366168 -0.12198991 0.1538906 0.039394673 -0.08511391 0.06417513 0.15018463 0.009760331
-0.024563527 0.030928075 0.025407508 -0.065582424 -0.048821546 -0.10196426 0.27098542 0.07789556
0.015181263 -0.10615528 0.17006868 -0.15055954 0.0028889745 -0.11902764 0.12988669 0.024974389
-0.16909172 -0.15181535 0.03724596 0.06692788 0.011436285 0.19876266 0.093575254 -0.1744359
0.25931397 -0.051712383 0.13041805 -0.09370366 0.15551871 0.10406283 0.2584144 0.023908136
0.11620625 0.05065226 -0.018199505 0.0635128 -0.043369655 -0.34260616 0.38376603 -0.19847612
0.35682422 -0.16782379 -0.12251735 0.048275057 0.093069665 -0.120196894 -0.27775577 -0.0010150985
0.03205367 0.17893688 -0.12989725 0.2944654 -0.14184569 -0.03757585 0.25841722 -0.15592936
0.18435639 -0.2715935 -0.019484682 0.024348624 0.07580592 -0.13156924 -0.23286673 0.019267168
0.12516312 0.0590567 0.041406725 0.4272875 0.035714813 -0.0016995787 0.08584259 -0.21736234
0.21641546 -0.14970186 0.101985805 0.0052288137 -0.23220977 0.19042888 0.098595425 0.17625564
0.03738841 0.12696837 0.021712275 -0.34040508 -0.011009882 -0.03261975 -0.15627635 0.12715255
0.017034987 0.01657819 -0.16615671 0.155574 -0.027986152 -0.038005497 -0.14563559 0.06881497
0.13509889 0.1023392 0.19291405 -0.14867593 0.0694529 -0.12131768 0.007308088 0.16729486
-0.18040308 0.16556412 -0.07203558 0.25914305 -0.23939764 0.04350533 0.083563045 -0.13351104
-0.0121063525 0.1198496 0.072656445 -0.06065965 0.116817735 -0.014763476 0.42548457 0.2429847
00000000: dcd6 293c d9d5 f9bd 7f95 1d3e 4f5c 213d
00000010: 3450 aebd 406e 833d 00ca 193e cce9 1f3c
00000020: 7339 c9bc e05c fd3c 6823 d03c 1450 86bd
00000030: 1af9 47bd a3d2 d0bd 9abe 8a3e b587 9f3d
00000040: d5ba 783c f067 d9bd 7c26 2e3e 482c 1abe
00000050: f354 3d3b c3c4 f3bd 0401 053e 1797 cc3c
00000060: 6126 2dbe 7c75 1bbe 388f 183d 7c11 893d
00000070: 425f 3b3c 7088 4b3e 62a4 bf3d 539f 32be
00000080: cdc4 843e 5dd0 53bd 4f8c 053e b4e7 bfbd
00000090: 4c40 1f3e e51e d53d e44e 843e ffda c33c
000000a0: 8bfd ed3d bf78 4f3d 2117 95bc 0013 823d
000000b0: 61a4 31bd 136a afbe fb7c c43e 533d 4bbe
000000c0: aab1 b63e 00da 2bbe 60ea fabd 11bc 453d
000000d0: 4f9b be3d ca29 f6bd 0136 8ebe 0e0d 85ba
000000e0: b64a 033d 3b3b 373e c903 05be 2bc4 963e
000000f0: ff3f 11be 22e9 19bd 434f 843e f2ab 1fbe
00000100: ecc7 3c3e 4e0e 8bbe 579e 9fbc c476 c73c
00000110: 2240 9b3d 16ba 06be 9e74 6ebe 2ed6 9d3c
00000120: c32a 003e 70e5 713d 199a 293d 6dc5 da3e
00000130: b249 123d 66c4 deba 3dce af3d 3c94 5ebe
00000140: 049c 5d3e 724b 19be efdd d03d 7856 ab3b
00000150: 66c8 6dbe caff 423e 66ec c93d 5c7c 343e
00000160: 9724 193d ff03 023e f1dd b13c 9349 aebe
00000170: cb62 34bc 499c 05bd e806 20be 4734 023e
00000180: f58c 8b3c fcce 873c fc24 2abe ca4e 1f3e
00000190: 3743 e5bc a7ab 1bbd 7f21 15be ddee 8c3d
000001a0: 5d57 0a3e 3797 d13d 438b 453e 813e 18be
000001b0: 523d 8e3d 6775 f8bd af78 ef3b 584f 2b3e
000001c0: 96bb 38be a489 293e 6487 93bd 66ae 843e
000001d0: a824 75be a532 323d 1a23 ab3d 1eb7 08be
000001e0: b959 46bc b573 f53d e7cc 943d 4176 78bd
000001f0: 233e ef3d 82e2 71bc 1dd9 d93e fbd0 783e

bias f4 [8]
0.6520048 0.24039547 -0.010157803 0.12928298 -0.1884484 0.181565 0.04054663 0.29702085
00000000: c9e9 263f 3b2a 763e ea6c 26bc c262 043e
00000010: 9ef8 40be 2dec 393e 3914 263d 1e13 983e

weight f4 [16, 8]
0.13767709 -0.115811594 0.12732315 -0.34969428 0.36758122 -0.11002128 0.3093978 0.08055173
-0.23414584 0.16245914 0.047230996 0.14737998 -0.13047494 0.13923103 -0.124301516 0.022200335
0.2439046 -0.023308557 -0.35002032 0.21061054 0.031540144 -0.025738228 -0.21621744 -0.06730686
0.016371122 0.19620684 -0.34436017 0.27176294 -0.14031121 -0.022993 -0.143861 0.012199174
0.21348299 0.048800193 -0.20204072 0.019471722 0.22301169 0.06821354 -0.27238095 0.11209031
-0.032729756 -0.07325955 0.15255539 -0.30774382 0.26295868 -0.00071067596 0.12447678 0.20261142
-0.120263696 0.12858456 0.015737897 -0.1543129 0.34611598 0.101240456 0.009019487 0.20104739
0.30271852 -0.20287885 0.06437451 -0.2085431 0.26141664 -0.16767342 0.25592047 -0.19081634
0.44224882 -0.2566116 -0.35026655 0.23240438 -0.08086761 -0.39399934 0.1571093 -0.47082087
0.3230747 -0.22639506 -0.14922117 0.043939203 0.08961442 -0.117374696 0.063088775 -0.12008371
0.43373245 -0.4588372 -0.18780333 0.14419416 0.057365634 -0.4152992 0.20578024 -0.46387127
-0.31945086 0.21462508 0.21995513 0.044676416 -0.17659469 0.20226054 -0.13891144 0.029025976
0.025249617 -0.030858012 -0.017952485 -0.033397574 -0.06594227 -0.12972718 -0.101199135 -0.065574996
-0.08297005 0.10835656 -0.0612711 0.08379169 -0.26217437 0.13677967 -0.24169423 0.049248934
0.073026255 0.06316051 -0.24725606 0.3779999 -0.48224095 0.070294276 -0.097629726 -0.09907825
-0.17314191 0.292569 -0.005113466 -0.1388626 0.15812929 0.27462077 0.039058 0.34049717
00000000: 39fb 0c3e a12e edbd 0061 023e 210b b3be
00000010: 9b33 bc3e d652 e1bd 6369 9e3e 4ef8 a43d
00000020: edc3 6fbe b05b 263e 4a75 413d c7ea 163e
00000030: 399b 05be 9492 0e3e cb91 febd 7add b53c
00000040: 21c2 793e 96f1 bebc dd35 b3be 4aaa 573e
00000050: 3d30 013d fad8 d2bc 1b68 5dbe 2ed8 89bd
00000060: bb1c 863c 72ea 483e fa4f b0be 8324 8b3e
00000070: bead 0fbe d15b bcbc 4c50 13be 0bdf 473c
00000080: 499b 5a3e b6e2 473d c3e3 4ebe 2983 9f3c
00000090: 2d5d 643e 8ab3 8b3d 8475 8bbe 9b8f e53d
000000a0: a30f 06bd 1a09 96bd 7b37 1c3e 9990 9dbe
000000b0: 85a2 863e a84c 3aba afed fe3d 5e79 4f3e
000000c0: d04c f6bd acab 033e c3ec 803c 3304 1ebe
000000d0: 1d36 b13e 2857 cf3d 78c6 133c 5edf 4d3e
000000e0: ecfd 9a3e 79bf 4fbe c8d6 833d 538c 55be
000000f0: 67d8 853e 95b2 2bbe 0208 833e 5c65 43be
00000100: 706e e23e 9862 83be 2356 b3be 6afb 6d3e
00000110: eb9d a5bd 48ba c9be 43e1 203e 6f0f f1be
00000120: 0c6a a53e 1bd4 67be 6fcd 18be 98f9 333d
00000130: c487 b73d 2562 f0bd b034 813d 73ee f5bd
00000140: 2e12 de3e b6ec eabe 844f 40be a2a7 133e
00000150: 3af8 6a3d 19a2 d4be 0eb8 523e 8980 edbe
00000160: 108f a3be adc6 5b3e eb3b 613e 9efe 363d
00000170: 3dd5 34be 631d 4f3e cd3e 0ebe e2c7 ed3c
00000180: 49d8 ce3c f1c9 fcbc 1711 93bc e5cb 08bd
00000190: be0c 87bd 34d7 04be 7e41 cfbd 2f4c 86bd
000001a0: 34ec a9bd 0bea dd3d 68f7 7abd fa9a ab3d
000001b0: b83b 86be f80f 0c3e b17e 77be 40b9 493d
000001c0: ca8e 953d 4c5a 813d b130 7dbe 3489 c13e
000001d0: 49e8 f6be 72f6 8f3d 18f2 c7bd 8ae9 cabd
000001e0: 1d4c 31be 9bcb 953e dd8e a7bb ff31 0ebe
000001f0: a5ec 213e 189b 8c3e 48fb 1f3d a555 ae3e

bias f4 [16]
-0.052765634 0.24629422 0.03943975 -0.16768636 0.05179761 -0.05663711 -0.05771212 0.20240562
-0.11756698 0.22119512 0.05516846 0.08544621 -0.20404972 0.07226895 0.13992329 -0.37714037
00000000: c720 58bd 8d34 7c3e 938b 213d f9b5 2bbe
00000010: bb29 543d 50fc 67bd 8b63 6cbd 6b43 4f3e
00000020: f5c6 f0bd f980 623e 53f8 613d 6cfe ae3d
00000030: 69f2 50be be01 943d 0d48 0f3e 8b18 c1be
