models/mapping.pth (torch, 9359 bytes, 12 tensors)

weight f4 [8, 16]
-0.07377977 0.0060584573 -0.08505401 -0.30856192 0.36243695 -0.048268948 0.2134676 -0.13376579
0.20752685 -0.16835341 0.23236902 -0.26212344 -0.32232094 -0.16599707 -0.11333694 0.2704819
0.14443305 -0.2331034 0.09275312 -0.1975389 0.18837196 -0.02372687 -0.0035914774 0.1178093
0.36009577 -0.02172908 -0.33496216 -0.017442182 -0.13986075 0.14720166 -0.1461806 -0.353513
-0.12412123 0.12230045 0.08552156 -0.029781286 0.13905126 0.02669449 -0.12554982 0.37897676
-0.24773052 0.36659682 0.33729368 0.16703641 -0.10017513 0.02770049 -0.46995533 0.19610277
-0.10712854 -0.18837713 0.2267576 0.0438712 0.23460527 -0.058675066 0.17928721 0.024751255
-0.09323001 -0.20133993 -0.093721665 0.09203261 -0.18559468 -0.4692305 0.078955434 0.19784294
-0.338373 -0.1374858 -0.21631746 0.23357673 -0.0896105 0.37312892 -0.03245533 0.09137309
-0.049649496 -0.5441626 0.24947912 0.035269752 -0.038878907 -0.095104255 0.21799023 0.07423977
-0.09476598 -0.1945993 0.14372016 0.047413155 -0.011923684 0.13269138 -0.0122542875 -0.08485888
0.13545132 -0.053856093 0.39054537 -0.28174737 0.04090393 -0.3092798 -0.1923124 -0.10212155
-0.17291477 -0.0040683127 0.059014935 0.056784276 0.009621684 0.29327396 -0.41634846 -0.2077917
0.083280906 -0.12797159 0.2476769 0.08104142 0.21434176 -0.22977272 0.19076975 0.028458547
-0.05020057 0.0044786436 0.1914543 -0.12577046 -0.07667176 -0.278507 -0.5150468 -0.35490608
0.07446442 0.008536796 0.22639039 0.085736185 -0.066320926 0.011848162 0.06015211 -0.1626867
00000000: d919 97bd 0686 c63b cc30 aebd d4fb 9dbe
00000010: 5691 b93e a9b5 45bd 4097 5a3e e6f9 08be
00000020: eb81 543e d664 2cbe 25f2 6d3e 0b35 86be
00000030: 4007 a5be 23fb 29be 331d e8bd 9b7c 8a3e
00000040: 42e6 133e a8b2 6ebe 59f5 bd3d a347 4abe
00000050: 94e4 403e da5e c2bc fe5e 6bbb 0146 f13d
00000060: 795e b83e 2f01 b2bc 2980 abbe e8e2 8ebc
00000070: a837 0fbe 08bc 163e 5eb0 15be a8ff b4be
00000080: 4533 febd a978 fa3d ed25 af3d e2f7 f3bc
00000090: 7463 0e3e 67ae da3c 2290 00be 3e09 c23e
000000a0: 12ad 7dbe 94b2 bb3e c2b1 ac3e 980b 2b3e
000000b0: 9e28 cdbd 23ec e23c fc9d f0be 2acf 483e
000000c0: 3566 dbbd efe5 40be 2533 683e 4ab2 333d
000000d0: 5d3c 703e 4455 70bd 1197 373e 25c3 ca3c
000000e0: 60ef bebd 0e2c 4ebe 25f1 bfbd 987b bc3d
000000f0: 880c 3ebe fb3e f0be 63b3 a13d 5797 4a3e
00000100: 3a3f adbe 14c9 0cbe 5382 5dbe bd2e 6f3e
00000110: b685 b7bd c10a bf3e e1ef 04bd d121 bb3d
00000120: 455d 4bbd 3d4e 0bbf 7477 7f3e 0477 103d
00000130: 7d3f 1fbd 05c6 c2bd d538 5f3e 050b 983d
00000140: ab14 c2bd 0a45 47be 612b 133e 4c34 423d
00000150: 8e5b 43bc 40e0 073e 35c6 48bc 7eca adbd
00000160: c0b3 0a3e 3598 5cbd 90f5 c73e 3141 90be
00000170: e18a 273d ec59 9ebe 8bed 44be 1a25 d1bd
00000180: 9210 31be 7b4f 85bb a5b9 713d a196 683d
00000190: 45a4 1d3c 0128 963e a02b d5be 59c7 54be
000001a0: 2e8f aa3d fc0a 03be 039f 7d3e 0bf9 a53d
000001b0: 687c 5b3e 8a49 6bbe 2559 433e e621 e93c
000001c0: 1d9f 4dbd 96c1 923b 990c 443e f9c9 00be
000001d0: 1506 9dbd 7898 8ebe 1bda 03bf 40b6 b5be
000001e0: cd80 983d ebdd 0b3c e2d2 673e 7496 af3d
000001f0: 44d3 87bd cb1e 423c 0f62 763d 5897 26be

bias f4 [8]
0.04569878 0.64706165 -0.024823185 0.614228 0.17588662 0.6723396 0.5740418 0.20072179
00000000: a52e 3b3d d5a5 253f fe59 cbbc 0c3e 1d3f
00000010: 9f1b 343e 731e 2c3f 67f4 123f 038a 4d3e

weight f4 [16, 8]
0.12056526 -0.39809096 0.2933483 0.27452675 -0.20347448 -0.12570362 0.32723182 -0.29322022
-0.04929239 0.40259942 0.079680264 0.33584258 0.27639818 0.32334727 -0.20250358 -0.6203653
0.06395489 -0.53358734 -0.09225819 0.27661246 0.43579003 -0.22314203 0.41505605 0.14092696
0.1872099 0.12582709 0.10360985 0.63294554 -0.060670853 0.009757166 -0.28988555 0.3197094
-0.2628157 -0.26171625 -0.20447789 0.08630702 -0.3941976 -0.22135697 -0.07127148 -0.17126231
0.28261626 0.06286985 -0.07760136 0.4025538 -0.36994457 0.67011356 0.3968797 -0.11224222
-0.28338483 -0.05714682 -0.6498917 -0.09200679 0.037212145 -0.2080772 -0.09838886 0.048131242
-0.1373094 0.3706463 0.14979257 0.4679366 0.035944402 0.10437028 -0.11866461 0.045511488
-0.09584428 0.015397414 -0.6407997 0.22841054 -0.07418966 0.21906364 0.39666787 0.4989904
-0.18509088 0.49661484 -0.21258046 0.13104467 -0.26362 0.09005382 0.44660127 0.19022352
-0.12521243 -0.26890317 0.0443251 -0.18147755 0.24449104 -0.09633937 -0.1397889 0.28217262
0.37508994 0.08002737 0.121770166 0.22482312 -0.39867413 -0.20369177 -0.5177693 -0.03603938
-0.37215903 -0.030220626 -0.26458132 0.3101326 -0.23108733 0.27517757 -0.10736016 -0.05564287
0.37314776 0.27222797 0.19366568 0.1799427 -0.33706695 -0.49059722 0.0041141473 -0.37721112
-0.042400878 0.02668507 0.020991175 0.19662903 0.18662728 -0.44247764 -0.045350116 0.25673646
-0.010138928 -0.28096038 0.07124131 -0.14381824 0.10518299 -0.29365137 0.004813552 -0.10970195
00000000: ebea f63d 94d2 cbbe c031 963e c58e 8c3e
00000010: 9d5b 50be 73b8 00be ee8a a73e f620 96be
00000020: d1e6 49bd 8321 ce3e 682f a33d 8ff3 ab3e
00000030: 1084 8d3e c68d a53e 195d 4fbe 43d0 1ebf
00000040: c8fa 823d 2e99 08bf ddf1 bcbd 26a0 8d3e
00000050: df1f df3e 587f 64be 3a82 d43e 284f 103e
00000060: f4b3 3f3e d1d8 003e 6731 d43d b808 223f
00000070: 0082 78bd 85dc 1f3c e16b 94be f3b0 a33e
00000080: c88f 86be acff 85be a762 51be bcc1 b03d
00000090: 45d4 c9be 67ab 62be c8f6 91bd 635f 2fbe
000000a0: 14b3 903e e8c1 803d 76ed 9ebd 881b ce3e
000000b0: 6069 bdbe 908c 2b3f d133 cb3e 40df e5bd
000000c0: d117 91be c912 6abd 4d5f 26bf 0e6e bcbd
000000d0: c36b 183d 3112 55be 1980 c9bd 4425 453d
000000e0: d69a 0cbe 5ac5 bd3e 3963 193e 6395 ef3e
000000f0: 703a 133d 16c0 d53d 6e06 f3bd 416a 3a3d
00000100: 024a c4bd 6f45 7c3c 730b 24bf 74e4 693e
00000110: c0f0 97bd 3852 603e 0d18 cb3e ab7b ff3e
00000120: 7788 3dbe 4d44 fe3e b1ae 59be 9330 063e
00000130: 33f9 86be 236e b83d eca8 e43e f4c9 423e
00000140: b037 00be adad 89be 3c8e 353d 40d5 39be
00000150: dc5b 7a3e 934d c5bd d224 0fbe ee78 903e
00000160: ca0b c03e 64e5 a33d a362 f93d 0838 663e
00000170: 041f ccbe 9394 50be 878c 04bf 079e 13bd
00000180: a18b bebe 3f91 f7bc 3477 87be b3c9 9e3e
00000190: 28a2 6cbe 13e4 8c3e a5df dbbd c7e9 63bd
000001a0: 390d bf3e 7761 8b3e 4c50 463e e642 383e
000001b0: 0a94 acbe 8f2f fbbe f8cf 863b d121 c1be
000001c0: 8bac 2dbd a69a da3c aff5 ab3c 1f59 493e
000001d0: 391b 3f3e 6e8c e2be 0bc1 39bd f672 833e
000001e0: bf1d 26bc 0ada 8fbe f7e6 913d 1745 13be
000001f0: 2e6a d73d 7959 96be 00bb 9d3b 6aab e0bd

bias f4 [16]
-0.25233263 0.24277407 0.37079254 -0.20717403 -0.36138827 0.34467655 0.5133981 0.34268993
0.37237433 0.0481827 -0.344214 -0.030566186 -0.5035682 -0.26540786 0.32595927 -0.77803886
00000000: be31 81be c499 783e 85d8 bd3e 6e25 54be
00000010: e207 b9be 7279 b03e 0f6e 033f 0e75 af3e
00000020: d9a7 be3e 395b 453d d13c b0be f065 fabc
00000030: d8e9 00bf 8ae3 87be 22e4 a63e 8e2d 47bf

weight f4 [8, 16]
0.42241144 0.18982951 0.24160773 -0.523543 0.29019088 -0.244183 0.06419374 0.0405861
0.4147004 0.61443996 0.6176242 0.13128634 -0.05315133 0.55545396 -0.027568622 -0.8345798
0.4739036 0.30579937 -0.2389131 -0.17234617 0.017632004 0.047950566 -0.18895665 -0.24112795
-0.029488927 -0.6902524 0.22047979 0.17131576 0.13305204 -0.082189925 0.13428412 -0.0020577793
0.23705432 0.13728558 -0.2842965 0.14157 -0.306091 0.16636209 0.23684998 0.14880198
-0.18881129 0.03427451 -0.38011333 0.22446617 -0.20559828 -0.25918505 -0.2467184 -0.12287751
-0.036980603 0.012465803 -0.026183689 0.04746947 0.0054866658 0.024085525 0.18718305 0.0875082
-0.08520429 0.2645357 -0.028649053 0.36721414 -0.10782089 0.50367135 -0.22078697 0.116373256
-0.43437985 0.0008458137 -0.3405242 -0.19184156 0.087746315 0.18347418 0.058754135 -0.3140315
0.1042585 0.22724764 -0.039022345 0.08628891 -0.12254896 -0.020352863 -0.24334444 -0.013092992
0.1543788 0.07016706 -0.0917356 -0.21096985 0.18470834 0.32773995 0.08953781 -0.049076878
0.11297594 -0.04428299 -0.26874408 -0.045515195 0.17876548 -0.021814631 4.472275e-05 0.44753617
0.010960581 0.05839514 -0.048893306 -0.028998498 0.16802162 -0.27558747 0.34143528 -0.22908424
0.033633783 0.027940346 0.06980386 -0.09707475 -0.007556151 0.024925794 0.14945436 -0.06451872
0.5938366 0.57723194 0.20223351 0.20281011 -0.1240223 0.04570936 0.18133472 0.60453784
0.48816693 -0.22539185 0.06763749 0.06944473 -0.012882471 -0.31833276 -0.19838461 -0.17811148
00000000: 5046 d83e ab62 423e 0468 773e ea06 06bf
00000010: e693 943e 1c0b 7abe 0278 833d 9c3d 263d
00000020: 9c53 d43e f04b 1d3f 9f1c 1e3f ed6f 063e
00000030: 36b5 59bd 3b32 0e3f 97d7 e1bc 06a7 55bf
00000040: 7ea3 f23e bc91 9c3e a3a5 74be 847b 30be
00000050: fe70 903c d067 443d da7d 41be 3fea 76be
00000060: c392 f1bc 62b4 30bf 74c5 613e 666d 2f3e
00000070: cb3e 083e 3153 a8bd c781 093e cfdb 06bb
00000080: 5ebe 723e 9794 0c3e 508f 91be baf7 103e
00000090: f6b7 9cbe d35a 2a3e cd88 723e 8c5f 183e
000000a0: bf57 41be 6e63 0c3d 379e c2be 76da 653e
000000b0: 5b88 52be e7b3 84be c0a3 7cbe 34a7 fbbd
000000c0: f978 17bd 5e3d 4c3c 2d7f d6bc 596f 423d
000000d0: 7dc9 b33b 024f c53c eaac 3f3e 8037 b33d
000000e0: 967f aebd 3971 873e 6bb1 eabc 7e03 bc3e
000000f0: 33d1 dcbd 9bf0 003f fb15 62be 1a55 ee3d
00000100: 0967 debe 99b9 5d3a 3059 aebe 1d72 44be
00000110: 57b4 b33d a8e0 3b3e 2da8 703d bdc8 a0be
00000120: 7b85 d53d 9bb3 683e e5d5 1fbd 3db8 b03d
00000130: f3fa fabd 0cbb a6bc 492f 79be fd83 56bc
00000140: 7a15 1e3e bfb3 8f3d e0df bbbd 7b08 58be
00000150: 2f24 3d3e 88cd a73e 995f b73d d604 49bd
00000160: ee5f e73d 1562 35bd d398 89be 246e 3abd
00000170: 4c0e 373e 99b4 b2bc b094 3b38 7623 e53e
00000180: 0294 333c be2f 6f3d 5944 48bd 428e edbc
00000190: dc0d 2c3e cd19 8dbe 9bd0 ae3e 0f95 6abe
000001a0: 94c3 093d 27e3 e43c 53f5 8e3d 20cf c6bd
000001b0: 9799 f7bb 2e31 cc3c 900a 193e 6422 84bd
000001c0: ad05 183f 79c5 133f 4d16 4f3e 74ad 4f3e
000001d0: 67ff fdbd bd39 3b3d cfaf 393e fec2 1a3f
000001e0: 04f1 f93e 1fcd 66be 8685 8a3d 0a39 8e3d
000001f0: 0011 53bc 83fc a2be 5625 4bbe db62 36be

bias f4 [8]
-0.6996397 -0.10682353 0.7562147 0.4549555 0.05191108 0.44492227 0.6692586 -0.107066944
00000000: 961b 33bf 4bc6 dabd 4997 413f edef e83e
00000010: b6a0 543d dacc e33e 8854 2b3f ea45 dbbd

weight f4 [16, 8]
0.2597934 0.69086576 -0.34615815 -0.13783602 0.15394902 -0.20575503 0.22085047 -0.22298768
0.56774104 0.06827115 0.44120368 0.48633972 0.11326599 -0.0662029 -0.07623993 -0.4405556
0.42507106 -0.1008438 0.1645407 0.032680243 0.45712048 0.007120126 -0.034897823 0.4907922
-0.3190648 0.6281416 -0.31314617 0.04370062 -0.18362778 0.11154621 -0.20088822 -0.48363048
0.721139 0.5923725 0.046900634 0.14115967 0.032530855 -0.083601095 -0.12913926 0.15496911
0.5505531 0.03540928 -0.06182892 0.19951992 -0.48804215 0.28818503 0.10555642 0.23556398
0.5460866 -0.09344845 -0.41939995 0.3307371 -0.005689475 0.66455823 0.07934308 -0.3663701
-0.13891527 0.23126797 0.43740338 0.49992332 0.04820915 0.09080304 0.3945686 -0.34139305
0.306838 0.11243793 -0.5987843 -0.31214505 -0.30318066 0.040290307 0.3652613 -0.7071143
0.08245364 -0.16244492 0.04634479 0.0855163 -0.27727646 0.3145896 0.14644699 0.19291693
0.06913253 0.012556012 -0.109798506 -0.39998168 -0.128659 0.24670383 -0.28633532 -0.05438197
0.037004385 0.014436657 -0.41601363 0.010323773 -0.45706186 -0.13551314 0.0934233 -0.23496462
0.65780705 -0.31792775 0.7518099 -0.1531873 0.3203976 0.118922904 -0.4749254 0.71461284
-0.50720495 0.46444488 0.03325656 0.4532467 0.009515118 -0.39273497 -0.41614103 -0.3133785
-0.20071551 0.14870365 0.47308844 0.38139412 -0.37343392 0.40123358 0.2468443 -0.069483176
0.20187716 -0.23537858 0.12287748 -0.2015955 0.23491146 -0.13983461 -0.4019767 0.07386407
00000000: a403 853e 94dc 303f a43b b1be e324 0dbe
00000010: d0a4 1d3e 72b1 52be a026 623e e256 64be
00000020: 7a57 113f bfd1 8b3d 73e5 e13e 8501 f93e
00000030: 00f8 e73d 6395 87bd ae23 9cbd 8190 e1be
00000040: eaa2 d93e 3287 cebd 5b7d 283e b8db 053d
00000050: b20b ea3e f24f e93b 05f1 0ebd 1e49 fb3e
00000060: 765c a3be e3cd 203f b254 a0be 6cff 323d
00000070: ec08 3cbe 5772 e43d a4b5 4dbe 6a9e f7be
00000080: 919c 383f b9a5 173f e11a 403d 298c 103e
00000090: 133f 053d 0d37 abbd 153d 04be 39b0 1e3e
000000a0: 0cf1 0c3f 5209 113d 5240 7dbd f34e 4c3e
000000b0: a9e0 f9be fd8c 933e f72d d83d af37 713e
000000c0: 55cc 0b3f e761 bfbd 97bb d6be 6056 a93e
000000d0: c76e babb 7d20 2a3f a07e a23d dd94 bbbe
000000e0: ce3f 0ebe 83d1 6c3e 56f3 df3e f3f5 ff3e
000000f0: f576 453d f2f6 b93d e504 ca3e 12cb aebe
00000100: df19 9d3e dc45 e63d ee49 19bf 7ad1 9fbe
00000110: 7f3a 9bbe 7307 253d 8703 bb3e 7105 35bf
00000120: 74dd a83d f657 26be 09d4 3d3d 2b23 af3d
00000130: 2ef7 8dbe e311 a13e 33f6 153e 048c 453e
00000140: 5b95 8d3d bbb7 4d3c 0ade e0bd 66ca ccbe
00000150: 2fbf 03be ee9f 7c3e 8b9a 92be a1bf 5ebd
00000160: e991 173d ba87 6c3c bdff d4be 0b25 293c
00000170: 0304 eabe f5c3 0abe b754 bf3d 919a 70be
00000180: 0b66 283f 6dc7 a2be 9d76 403f 22dd 1cbe
00000190: 270b a43e da8d f33d 6c29 f3be def0 363f
000001a0: 2fd8 01bf b8cb ed3e 0838 083d f40f e83e
000001b0: 4ce5 1b3c 8f14 c9be 7010 d5be 2673 a0be
000001c0: 5e88 4dbe c545 183e a638 f23e 1746 c33e
000001d0: bb32 bfbe 7d6e cd3e c1c4 7c3e 324d 8ebd
000001e0: e3b8 4e3e 1507 71be 30a7 fb3d 0d6f 4ebe
000001f0: a18c 703e ce30 0fbe e4cf cdbe 0c46 973d

bias f4 [16]
-0.17229374 -0.1697332 -0.074565955 -0.06413451 0.19256961 0.03328921 0.6918854 0.011693416
-0.16354899 0.3648244 -0.39172208 -0.25204203 -0.47892147 0.16226119 0.05109942 -0.24108855
00000000: c56d 30be 8ace 2dbe 09b6 98bd f458 83bd
00000010: f830 453e 445a 083d 671f 313f be95 3f3c
00000020: 6379 27be 44ca ba3e cc8f c8be a70b 81be
00000030: 3235 f5be cc27 263e a04d 513d ebdf 76be

weight f4 [8, 16]
-0.23037307 -0.38556504 0.11882595 -0.43645597 -0.10518019 0.40466273 0.106216155 -0.21253207
-0.22425044 0.098604284 0.10993142 0.24262814 -0.09661176 -0.31024164 0.27987358 -0.05421608
-0.15339214 -0.023303077 -0.16750918 -0.20424919 -0.118624985 -0.017293658 -0.2572937 0.029187126
0.0043236045 0.26511016 0.20593292 -0.12534234 -0.16781023 -0.007890368 -0.122812726 0.03948275
-0.1924487 -0.10716873 -0.04179868 0.047255497 -0.021678954 0.26363584 -0.099989295 -0.09422593
-0.065606795 -0.2768827 -0.06571724 0.14636724 -0.334726 0.1609721 0.09257367 0.32501185
0.048404362 -0.19696571 -0.06344195 0.04992945 0.037345063 -0.21631555 0.11120624 -0.06558387
-0.25262743 -0.17318225 -0.13513955 -0.21487297 -0.013986948 -0.42857304 0.08093117 0.11187347
0.23144688 -0.41895455 -0.02242397 0.030396184 -0.0011240962 0.19391356 -0.35417503 0.09185032
-0.31739002 0.024966499 0.21182984 -0.3909872 0.18193428 0.17059396 -0.20395543 -0.0020228298
-0.048490237 0.08557581 -0.030065743 0.19429372 -0.0077914908 -0.053113554 -0.2020915 0.35138687
-0.16852771 -0.16447829 0.050227154 -0.24133617 0.05438494 -0.19259216 -0.2965895 0.5182711
-0.004863891 0.39347306 0.18158165 -0.14129156 0.09329984 0.2510119 -0.2840867 -0.38817003
0.18935496 0.012601572 -0.049175736 0.2548209 -0.05164891 0.29528293 0.58391744 -0.10265583
0.4990283 -0.23449211 0.3312176 -0.22333279 0.20597942 0.039627425 0.06960374 -0.25335458
-0.07037317 0.09141594 -0.14787269 0.38889733 -0.030508505 0.31673288 0.13540763 -0.5105412
00000000: ebe6 6bbe c868 c5be 055b f33d 2877 dfbe
00000010: b668 d7bd f42f cf3e db87 d93d 02a2 59be
00000020: e8a1 65be 0bf1 c93d b923 e13d 8373 783e
00000030: 63dc c5bd fed7 9ebe 974b 8f3e ae11 5ebd
00000040: d412 1dbe 18e6 bebc 8787 2bbe b326 51be
00000050: a8f1 f2bd 6eab 8dbc 00bc 83be d719 ef3c
00000060: 06ad 8d3b 85bc 873e 14e0 523e be59 00be
00000070: 72d6 2bbe 9a46 01bc 3d85 fbbd aab8 213d
00000080: 4611 45be 477b dbbd 1835 2bbd fb8e 413d
00000090: 1098 b1bc 47fb 863e 30c7 ccbd 86f9 c0bd
000000a0: db5c 86bd 92c3 8dbe c396 86bd 4be1 153e
000000b0: 3561 abbe dfd5 243e 4497 bd3d f467 a63e
000000c0: a743 463d 61b1 49be daed 81bd d382 4c3d
000000d0: 23f7 183d d381 5dbe 19c0 e33d d650 86bd
000000e0: 6258 81be b056 31be 0662 0abe a907 5cbe
000000f0: 8329 65bc ed6d dbbe 3ebf a53d eb1d e53d
00000100: 6900 6d3e 3681 d6be 79b2 b7bc 6b01 f93c
00000110: 6956 93ba 4791 463e 6e56 b5be 051c bc3d
00000120: f280 a2be 8b86 cc3c ece9 583e 792f c8be
00000130: fb4c 3a3e 2fb0 2e3e b1d9 50be 7491 04bb
00000140: b39d 46bd 5f42 af3d 6f4c f6bc eff4 463e
00000150: c34f ffbb 998d 59bd 13f1 4ebe fbe8 b33e
00000160: 8792 2cbe ff6c 28be fdba 4d3d d420 77be
00000170: bec2 5e3d e136 45be 94da 97be 6aad 043f
00000180: 4661 9fbb 4d75 c93e 8af0 393e bcae 10be
00000190: fd13 bf3d a284 803e d073 91be 39be c6be
000001a0: 44e6 413e d376 4e3c 7f6c 49bd e377 823e
000001b0: cf8d 53bd 532f 973e 9d7b 153f 383d d2bd
000001c0: a380 ff3e b31e 70be 5a95 a93e 5ab1 64be
000001d0: 45ec 523e 5e50 223d 688c 8e3d b1b7 81be
000001e0: cf1f 90bd 4838 bb3d f06b 17be 8d1d c73e
000001f0: f9ec f9bc d02a a23e 4ca8 0a3e d4b2 02bf

bias f4 [8]
0.036245197 0.808594 0.047858372 0.47654584 0.2539096 0.81811947 0.38864735 0.16867955
00000000: d875 143d 0400 4f3f 2407 443d d1fd f33e
00000010: 7000 823e 4770 513f c9fc c63e 55ba 2c3e

weight f4 [16, 8]
-0.163047 -0.20797747 0.26960692 -0.2593429 0.087430164 -0.18018588 0.20265631 0.62214446
0.08835093 0.07695009 0.14937748 -0.063246876 -0.37026036 -0.08181894 -0.29048598 0.29003832
-0.14306854 0.25076348 -0.33495155 0.4545193 -0.2834195 -0.2569276 -0.029613063 -0.024388455
-0.35855037 -0.14230525 0.23590267 0.49235344 0.763784 0.24768014 -0.4947367 -0.011907624
0.3693558 -0.2813152 0.042656545 0.1413386 -0.045322806 -0.5092629 -0.16790718 -0.1642853
0.0025968712 -0.013674019 -0.17564268 -0.19629335 -0.25679815 -0.124156944 -0.10740348 0.29401863
-0.26144123 0.17139086 -0.28815952 -0.34272185 -0.16015013 -0.3507181 0.5311707 -0.007301301
0.09540937 0.0023060222 0.12686904 -0.03494376 0.48724478 0.06711522 -0.27799177 -0.2591939
0.48827064 0.32229275 -0.23634942 0.04651167 0.21988815 0.5683633 -0.11400467 -0.039838396
0.17623298 0.15129213 0.1680237 0.23612657 0.14314191 0.3912295 0.055835903 -0.05995523
-0.08436903 -0.4525155 -0.0089541925 -0.41551512 0.058796357 -0.30363035 -0.16271667 0.04759715
0.24043006 -0.41618454 -0.5021052 0.03127014 -0.21038036 -0.49725804 -0.31315482 0.42184255
0.28296247 0.13516785 -0.07585688 -0.13977261 -0.025909727 -0.747644 -0.52821064 -0.28762984
-0.1497534 0.2151856 0.28042737 -0.29795352 0.3565829 0.08295027 0.110377826 0.6352497
-0.5844508 -0.10212226 0.40877286 -0.17974631 -0.014159371 -0.13560846 -0.26546332 0.20422146
-0.11947296 -0.5483065 0.070246726 0.33266455 0.19731453 -0.09469761 -0.024499247 -0.09327075
00000000: cbf5 26be 0cf8 54be eb09 8a3e 98c8 84be
00000010: 960e b33d a682 38be 2385 4f3e dc44 1f3f
00000020: 55f1 b43d 0298 9d3d 69f6 183e 9487 81bd
00000030: c492 bdbe b090 a7bd 94ba 94be e77f 943e
00000040: 8f80 12be 1264 803e c57e abbe c1b6 e83e
00000050: 5c1c 91be 048c 83be 1897 f2bc 4cca c7bc
00000060: ea93 b7be 78b8 11be 7890 713e c015 fc3e
00000070: 5987 433f dd9f 7d3e 214e fdbe 3218 43bc
00000080: 341c bd3e 8c08 90be a1b8 2e3d 11bb 103e
00000090: 68a4 39bd 0e5f 02bf dcef 2bbe 683a 28be
000000a0: 4530 2a3b fe08 60bc addb 33be 2001 49be
000000b0: 0c7b 83be ff45 febd 5bf6 dbbd 9c89 963e
000000c0: a0db 85be 1681 2f3e a589 93be 3d79 afbe
000000d0: 65fe 23be 5391 b3be cefa 073f c13f efbb
000000e0: fd65 c33d a220 173b f5e9 013e 3021 0fbd
000000f0: 2678 f93e b473 893d f054 8ebe 10b5 84be
00000100: 9cfe f93e 8e03 a53e 9505 72be 0583 3e3d
00000110: 5c2a 613e 4280 113f 487b e9bd 962d 23bd
00000120: 6b76 343e 53ec 1a3e 680e 2c3e 2acb 713e
00000130: cb93 123e 3c4f c83e 30b4 643d 9e93 75bd
00000140: acc9 acbd 1db0 e7be 9bb4 12bc 66be d4be
00000150: 73d4 703d 7075 9bbe 339f 26be 3bf5 423d
00000160: 4c33 763e 2416 d5be f789 00bf 1e15 003d
00000170: f36d 57be 9b98 febe d455 a0be bffb d73e
00000180: 75e0 903e 7169 0a3e da5a 9bbd 8d20 0fbe
00000190: a340 d4bc 9965 3fbf d038 07bf 3844 93be
000001a0: f558 19be 9d59 5c3e 2d94 8f3e 5d8d 98be
000001b0: 0992 b63e d5e1 a93d c50d e23d b99f 223f
000001c0: 919e 15bf 7a25 d1bd ad4a d13e 6b0f 38be
000001d0: b5fc 67bc f2dc 0abe cfea 87be 6e1f 513e
000001e0: 3dae f4bd d15d 0cbf 84dd 8f3d 0253 aa3e
000001f0: d20c 4a3e d2f0 c1bd a5b2 c8bc bc04 bfbd

bias f4 [16]
-0.32169467 -0.18010089 0.08787799 0.24235472 -0.25953278 0.47523612 0.12250047 0.19589463
-0.026386326 0.12903562 -0.35638773 -0.0665987 0.026276905 0.031234145 0.17929268 -0.5550514
00000000: 2ab5 a4be 5e6c 38be 60f9 b33d d62b 783e
00000010: 7be1 84be 2652 f33e 87e1 fa3d 9a98 483e
00000020: 2328 d8bc ea21 043e 7478 b6be e664 88bd
00000030: aa42 d73c c0de ff3c 8098 373e d917 0ebf
